…
        min_scale: 0.3
        max_scale: 1
        min_aspect_ratio: 0.5
        max_aspect_ratio: 2
      }
      sample_constraint {
        min_jaccard_overlap: 0.9
      }
      max_sample: 1
      max_trials: 50
    }
    batch_sampler {
      sampler {
        min_scale: 0.3
        max_scale: 1
        min_aspect_ratio: 0.5
        max_aspect_ratio: 2
      }
      sample_constraint {
        max_jaccard_overlap: 1
      }
      max_sample: 1
      max_trials: 50
    }
    label_map_file: "data/3Dpascal/pascal3D//labelmap_3D.prototxt"
  }
}
layer {
  name: "conv1_1"
  type: "Convolution"
  bottom: "data"
  top: "conv1_1"
  param {
    lr_mult: 0
    decay_mult: 0
  }
  param {
    lr_mult: 0
    decay_mult: 0
  }
  convolution_param {
    num_output: 64
    pad: 1
    kernel_size: 3
    weight_filler {
      type: "xavier"
    }
    bias_filler {
      type: "constant"
      value: 0
    }
  }
}
layer {
  name: "relu1_1"
  type: "ReLU"
  bottom: "conv1_1"
  top: "conv1_1"
}
layer {
  name: "conv1_2"
  type: "Convolution"
  bottom: "conv1_1"
  top: "conv1_2"
  param {
    lr_mult: 0
    decay_mult: 0
  }
  param {
    lr_mult: 0
    decay_mult: 0
  }
  convolution_param {
    num_output: 64
    pad: 1
    kernel_size: 3
    weight_filler {
      type: "xavier"
    }
    bias_filler {
      type: "constant"
      value: 0
    }
  }
}
layer {
  name: "relu1_2"
  type: "ReLU"
  bottom: "conv1_2"
  top: "conv1_2"
}
layer {
  name: "pool1"
  type: "Pooling"
  bottom: "conv1_2"
  top: "pool1"
  pooling_param {
    pool: MAX
    kernel_size: 2
    stride: 2
  }
}
layer {
  name: "conv2_1"
  type: "Convolution"
  bottom: "pool1"
  top: "conv2_1"
  param {
    lr_mult: 0
    decay_mult: 0
  }
  param {
    lr_mult: 0
    decay_mult: 0
  }
  convolution_param {
    num_output: 128
    pad: 1
    kernel_size: 3
    weight_filler {
      type: "xavier"
    }
    bias_filler {
      type: "constant"
      value: 0
    }
  }
}
layer {
  name: "relu2_1"
  type: "ReLU"
  bottom: "conv2_1"
  top: "conv2_1"
}
layer {
  name: "conv2_2"
  type: "Convolution"
  bottom: "conv2_1"
  top: "conv2_2"
  param {
    lr_mult: 0
    decay_mult: 0
  }
  param {
    lr_mult: 0
    decay_mult: 0
  }
  convolution_param {
    num_output: 128
    pad: 1
    kernel_size: 3
    weight_filler {
      type: "xavier"
    }
    bias_filler {
      type: "constant"
      value: 0
    }
  }
}
layer {
  name: "relu2_2"
  type: "ReLU"
  bottom: "conv2_2"
  top: "conv2_2"
}
layer {
  name: "pool2"
  type: "Pooling"
  bottom: "conv2_2"
  top: "pool2"
  pooling_param {
    pool: MAX
    kernel_size: 2
    stride: 2
  }
}
layer {
  name: "conv3_1"
  type: "Convolution"
  bottom: "pool2"
  top: "conv3_1"
  param {
    lr_mult: 1
    decay_mult: 1
  }
  param {
    lr_mult: 2
    decay_mult: 0
  }
  convolution_param {
    num_output: 256
    pad: 1
    kernel_size: 3
    weight_filler {
      type: "xavier"
    }
    bias_filler {
      type: "constant"
      value: 0
    }
  }
}
layer {
  name: "relu3_1"
  type: "ReLU"
  bottom: "conv3_1"
  top: "conv3_1"
}
layer {
  name: "conv3_2"
  type: "Convolution"
  bottom: "conv3_1"
  top: "conv3_2"
  param {
    lr_mult: 1
    decay_mult: 1
  }
  param {
    lr_mult: 2
    decay_mult: 0
  }
  convolution_param {
    num_output: 256
    pad: 1
    kernel_size: 3
    weight_filler {
      type: "xavier"
    }
    bias_filler {
      type: "constant"
      value: 0
    }
  }
}
layer {
  name: "relu3_2"
  type: "ReLU"
  bottom: "conv3_2"
  top: "conv3_2"
}
layer {
  name: "conv3_3"
  type: "Convolution"
  bottom: "conv3_2"
  top: "conv3_3"
  param {
    lr_mult: 1
    decay_mult: 1
  }
  param {
    lr_mult: 2
    decay_mult: 0
  }
  convolution_param {
    num_output: 256
    pad: 1
    kernel_size: 3
    weight_filler {
      type: "xavier"
    }
    bias_filler {
      type: "constant"
      value: 0
    }
  }
}
layer {
  name: "relu3_3"
  type: "ReLU"
  bottom: "conv3_3"
  top: "conv3_3"
}
layer {
  name: "pool3"
  type: "Pooling"
  bottom: "conv3_3"
  top: "pool3"
  pooling_param {
    pool: MAX
    kernel_size: 2
    stride: 2
  }
}
layer {
  name: "conv4_1"
  type: "Convolution"
  bottom: "pool3"
  top: "conv4_1"
  param {
    lr_mult: 1
    decay_mult: 1
  }
  param {
    lr_mult: 2
    decay_mult: 0
  }
  convolution_param {
    num_output: 512
    pad: 1
    kernel_size: 3
    weight_filler {
      type: "xavier"
    }
    bias_filler {
      type: "constant"
      value: 0
    }
  }
}
layer {
  name: "relu4_1"
  type: "ReLU"
  bottom: "conv4_1"
  top: "conv4_1"
}
layer {
  name: "conv4_2"
  type: "Convolution"
  bottom: "conv4_1"
  top: "conv4_2"
  param {
    lr_mult: 1
    decay_mult: 1
  }
  param {
    lr_mult: 2
    decay_mult: 0
  }
  convolution_param {
    num_output: 512
    pad: 1
    kernel_size: 3
    weight_filler {
      type: "xavier"
    }
    bias_filler {
      type: "constant"
      value: 0
    }
  }
}
layer {
  name: "relu4_2"
  type: "ReLU"
  bottom: "conv4_2"
  top: "conv4_2"
}
layer {
  name: "conv4_3"
  type: "Convolution"
  bottom: "conv4_2"
  top: "conv4_3"
  param {
    lr_mult: 1
    decay_mult: 1
  }
  param {
    lr_mult: 2
    decay_mult: 0
  }
  convolution_param {
    num_output: 512
    pad: 1
    kernel_size: 3
    weight_filler {
      type: "xavier"
    }
    bias_filler {
      type: "constant"
      value: 0
    }
  }
}
layer {
  name: "relu4_3"
  type: "ReLU"
  bottom: "conv4_3"
  top: "conv4_3"
}
layer {
  name: "pool4"
  type: "Pooling"
  bottom: "conv4_3"
  top: "pool4"
  pooling_param {
    pool: MAX
    kernel_size: 2
    stride: 2
  }
}
layer {
  name: "conv5_1"
  type: "Convolution"
  bottom: "pool4"
  top: "conv5_1"
  param {
    lr_mult: 1
    decay_mult: 1
  }
  param {
    lr_mult: 2
    decay_mult: 0
  }
  convolution_param {
    num_output: 512
    pad: 1
    kernel_size: 3
    weight_filler {
      type: "xavier"
    }
    bias_filler {
      type: "constant"
      value: 0
    }
  }
}
layer {
  name: "relu5_1"
  type: "ReLU"
  bottom: "conv5_1"
  top: "conv5_1"
}
layer {
  name: "conv5_2"
  type: "Convolution"
  bottom: "conv5_1"
  top: "conv5_2"
  param {
    lr_mult: 1
    decay_mult: 1
  }
  param {
    lr_mult: 2
    decay_mult: 0
  }
  convolution_param {
    num_output: 512
    pad: 1
    kernel_size: 3
    weight_filler {
      type: "xavier"
    }
    bias_filler {
      type: "constant"
      value: 0
    }
  }
}
layer {
  name: "relu5_2"
  type: "ReLU"
  bottom: "conv5_2"
  top: "conv5_2"
}
layer {
  name: "conv5_3"
  type: "Convolution"
  bottom: "conv5_2"
  top: "conv5_3"
  param {
    lr_mult: 1
    decay_mult: 1
  }
  param {
    lr_mult: 2
    decay_mult: 0
  }
  convolution_param {
    num_output: 512
    pad: 1
    kernel_size: 3
    weight_filler {
      type: "xavier"
    }
    bias_filler {
      type: "constant"
      value: 0
    }
  }
}
layer {
  name: "relu5_3"
  type: "ReLU"
  bottom: "conv5_3"
  top: "conv5_3"
}
layer {
  name: "pool5"
  type: "Pooling"
  bottom: "conv5_3"
  top: "pool5"
  pooling_param {
    pool: MAX
    kernel_size: 3
    stride: 1
    pad: 1
  }
}
layer {
  name: "fc6"
  type: "Convolution"
  bottom: "pool5"
  top: "fc6"
  param {
    lr_mult: 1
    decay_mult: 1
  }
  param {
    lr_mult: 2
    decay_mult: 0
  }
  convolution_param {
    num_output: 1024
    pad: 6
    kernel_size: 3
    weight_filler {
      type: "xavier"
    }
    bias_filler {
      type: "constant"
      value: 0
    }
    dilation: 6
  }
}
layer {
  name: "relu6"
  type: "ReLU"
  bottom: "fc6"
  top: "fc6"
}
layer {
  name: "fc7"
  type: "Convolution"
  bottom: "fc6"
  top: "fc7"
  param {
    lr_mult: 1
    decay_mult: 1
  }
  param {
    lr_mult: 2
    decay_mult: 0
  }
  convolution_param {
    num_output: 1024
    kernel_size: 1
    weight_filler {
      type: "xavier"
    }
    bias_filler {
      type: "constant"
      value: 0
    }
  }
}
layer {
  name: "relu7"
  type: "ReLU"
  bottom: "fc7"
  top: "fc7"
}
layer {
  name: "conv6_1"
  type: "Convolution"
  bottom: "fc7"
  top: "conv6_1"
  param {
    lr_mult: 1
    decay_mult: 1
  }
  param {
    lr_mult: 2
    decay_mult: 0
  }
  convolution_param {
    num_output: 256
    pad: 0
    kernel_size: 1
    stride: 1
    weight_filler {
      type: "xavier"
    }
    bias_filler {
      type: "constant"
      value: 0
    }
  }
}
layer {
  name: "conv6_1_relu"
  type: "ReLU"
  bottom: "conv6_1"
  top: "conv6_1"
}
layer {
  name: "conv6_2"
  type: "Convolution"
  bottom: "conv6_1"
  top: "conv6_2"
  param {
    lr_mult: 1
    decay_mult: 1
  }
  param {
    lr_mult: 2
    decay_mult: 0
  }
  convolution_param {
    num_output: 512
    pad: 1
    kernel_size: 3
    stride: 2
    weight_filler {
      type: "xavier"
    }
    bias_filler {
      type: "constant"
      value: 0
    }
  }
}
layer {
  name: "conv6_2_relu"
  type: "ReLU"
  bottom: "conv6_2"
  top: "conv6_2"
}
layer {
  name: "conv7_1"
  type: "Convolution"
  bottom: "conv6_2"
  top: "conv7_1"
  param {
    lr_mult: 1
    decay_mult: 1
  }
  param {
    lr_mult: 2
    decay_mult: 0
  }
  convolution_param {
    num_output: 128
    pad: 0
    kernel_size: 1
    stride: 1
    weight_filler {
      type: "xavier"
    }
    bias_filler {
      type: "constant"
      value: 0
    }
  }
}
layer {
  name: "conv7_1_relu"
  type: "ReLU"
  bottom: "conv7_1"
  top: "conv7_1"
}
layer {
  name: "conv7_2"
  type: "Convolution"
  bottom: "conv7_1"
  top: "conv7_2"
  param {
    lr_mult: 1
    decay_mult: 1
  }
  param {
    lr_mult: 2
    decay_mult: 0
  }
  convolution_param {
    num_output: 256
    pad: 1
    kernel_size: 3
    stride: 2
    weight_filler {
      type: "xavier"
    }
    bias_filler {
      type: "constant"
      value: 0
    }
  }
}
layer {
  name: "conv7_2_relu"
  type: "ReLU"
  bottom: "conv7_2"
  top: "conv7_2"
}
layer {
  name: "conv8_1"
  type: "Convolution"
  bottom: "conv7_2"
  top: "conv8_1"
  param {
    lr_mult: 1
    decay_mult: 1
  }
  param {
    lr_mult: 2
    decay_mult: 0
  }
  convolution_param {
    num_output: 128
    pad: 0
    kernel_size: 1
    stride: 1
    weight_filler {
      type: "xavier"
    }
    bias_filler {
      type: "constant"
      value: 0
    }
  }
}
layer {
  name: "conv8_1_relu"
  type: "ReLU"
  bottom: "conv8_1"
  top: "conv8_1"
}
layer {
  name: "conv8_2"
  type: "Convolution"
  bottom: "conv8_1"
  top: "conv8_2"
  param {
    lr_mult: 1
    decay_mult: 1
  }
  param {
    lr_mult: 2
    decay_mult: 0
  }
  convolution_param {
    num_output: 256
    pad: 1
    kernel_size: 3
    stride: 2
    weight_filler {
      type: "xavier"
    }
    bias_filler {
      type: "constant"
      value: 0
    }
  }
}
layer {
  name: "conv8_2_relu"
  type: "ReLU"
  bottom: "conv8_2"
  top: "conv8_2"
}
layer {
  name: "pool6"
  type: "Pooling"
  bottom: "conv8_2"
  top: "pool6"
  pooling_param {
    pool: AVE
    global_pooling: true
  }
}
layer {
  name: "conv4_3_norm"
  type: "Normalize"
  bottom: "conv4_3"
  top: "conv4_3_norm"
  norm_param {
    across_spatial: false
    scale_filler {
      type: "constant"
      value: 20
    }
    channel_shared: false
  }
}
layer {
  name: "conv4_3_norm_mbox_loc"
  type: "Convolution"
  bottom: "conv4_3_norm"
  top: "conv4_3_norm_mbox_loc"
  param {
    lr_mult: 1
    decay_mult: 1
  }
  param {
    lr_mult: 2
    decay_mult: 0
  }
  convolution_param {
    num_output: 12
    pad: 1
    kernel_size: 3
    stride: 1
    weight_filler {
      type: "xavier"
    }
    bias_filler {
      type: "constant"
      value: 0
    }
  }
}
layer {
  name: "conv4_3_norm_mbox_loc_perm"
  type: "Permute"
  bottom: "conv4_3_norm_mbox_loc"
  top: "conv4_3_norm_mbox_loc_perm"
  permute_param {
    order: 0
    order: 2
    order: 3
    order: 1
  }
}
layer {
  name: "conv4_3_norm_mbox_loc_flat"
  type: "Flatten"
  bottom: "conv4_3_norm_mbox_loc_perm"
  top: "conv4_3_norm_mbox_loc_flat"
  flatten_param {
    axis: 1
  }
}
layer {
  name: "conv4_3_norm_mbox_conf"
  type: "Convolution"
  bottom: "conv4_3_norm"
  top: "conv4_3_norm_mbox_conf"
  param {
    lr_mult: 1
    decay_mult: 1
  }
  param {
    lr_mult: 2
    decay_mult: 0
  }
  convolution_param {
    num_output: 36
    pad: 1
    kernel_size: 3
    stride: 1
    weight_filler {
      type: "xavier"
    }
    bias_filler {
      type: "constant"
      value: 0
    }
  }
}
layer {
  name: "conv4_3_norm_mbox_conf_perm"
  type: "Permute"
  bottom: "conv4_3_norm_mbox_conf"
  top: "conv4_3_norm_mbox_conf_perm"
  permute_param {
    order: 0
    order: 2
    order: 3
    order: 1
  }
}
layer {
  name: "conv4_3_norm_mbox_conf_flat"
  type: "Flatten"
  bottom: "conv4_3_norm_mbox_conf_perm"
  top: "conv4_3_norm_mbox_conf_flat"
  flatten_param {
    axis: 1
  }
}
layer {
  name: "conv4_3_norm_mbox_pose"
  type: "Convolution"
  bottom: "conv4_3_norm"
  top: "conv4_3_norm_mbox_pose"
  param {
    lr_mult: 1
    decay_mult: 1
  }
  param {
    lr_mult: 2
    decay_mult: 0
  }
  convolution_param {
    num_output: 24
    pad: 1
    kernel_size: 3
    stride: 1
    weight_filler {
      type: "xavier"
    }
    bias_filler {
      type: "constant"
      value: 0
    }
  }
}
layer {
  name: "conv4_3_norm_mbox_pose_perm"
  type: "Permute"
  bottom: "conv4_3_norm_mbox_pose"
  top: "conv4_3_norm_mbox_pose_perm"
  permute_param {
    order: 0
    order: 2
    order: 3
    order: 1
  }
}
layer {
  name: "conv4_3_norm_mbox_pose_flat"
  type: "Flatten"
  bottom: "conv4_3_norm_mbox_pose_perm"
  top: "conv4_3_norm_mbox_pose_flat"
  flatten_param {
    axis: 1
  }
}
layer {
  name: "conv4_3_norm_mbox_priorbox"
  type: "PriorBox"
  bottom: "conv4_3_norm"
  bottom: "data"
  top: "conv4_3_norm_mbox_priorbox"
  prior_box_param {
    min_size: 30
    aspect_ratio: 2
    flip: true
    clip: true
    variance: 0.1
    variance: 0.1
    variance: 0.2
    variance: 0.2
  }
}
layer {
  name: "fc7_mbox_loc"
  type: "Convolution"
  bottom: "fc7"
  top: "fc7_mbox_loc"
  param {
    lr_mult: 1
    decay_mult: 1
  }
  param {
    lr_mult: 2
    decay_mult: 0
  }
  convolution_param {
    num_output: 24
    pad: 1
    kernel_size: 3
    stride: 1
    weight_filler {
      type: "xavier"
    }
    bias_filler {
      type: "constant"
      value: 0
    }
  }
}
layer {
  name: "fc7_mbox_loc_perm"
  type: "Permute"
  bottom: "fc7_mbox_loc"
  top: "fc7_mbox_loc_perm"
  permute_param {
    order: 0
    order: 2
    order: 3
    order: 1
  }
}
layer {
  name: "fc7_mbox_loc_flat"
  type: "Flatten"
  bottom: "fc7_mbox_loc_perm"
  top: "fc7_mbox_loc_flat"
  flatten_param {
    axis: 1
  }
}
layer {
  name: "fc7_mbox_conf"
  type: "Convolution"
  bottom: "fc7"
  top: "fc7_mbox_conf"
  param {
    lr_mult: 1
    decay_mult: 1
  }
  param {
    lr_mult: 2
    decay_mult: 0
  }
  convolution_param {
    num_output: 72
    pad: 1
    kernel_size: 3
    stride: 1
    weight_filler {
      type: "xavier"
    }
    bias_filler {
      type: "constant"
      value: 0
    }
  }
}
layer {
  name: "fc7_mbox_conf_perm"
  type: "Permute"
  bottom: "fc7_mbox_conf"
  top: "fc7_mbox_conf_perm"
  permute_param {
    order: 0
    order: 2
    order: 3
    order: 1
  }
}
layer {
  name: "fc7_mbox_conf_flat"
  type: "Flatten"
  bottom: "fc7_mbox_conf_perm"
  top: "fc7_mbox_conf_flat"
  flatten_param {
    axis: 1
  }
}
layer {
  name: "fc7_mbox_pose"
  type: "Convolution"
  bottom: "fc7"
  top: "fc7_mbox_pose"
  param {
    lr_mult: 1
    decay_mult: 1
  }
  param {
    lr_mult: 2
    decay_mult: 0
  }
  convolution_param {
    num_output: 48
    pad: 1
    kernel_size: 3
    stride: 1
    weight_filler {
      type: "xavier"
    }
    bias_filler {
      type: "constant"
      value: 0
    }
  }
}
layer {
  name: "fc7_mbox_pose_perm"
  type: "Permute"
  bottom: "fc7_mbox_pose"
  top: "fc7_mbox_pose_perm"
  permute_param {
    order: 0
    order: 2
    order: 3
    order: 1
  }
}
layer {
  name: "fc7_mbox_pose_flat"
  type: "Flatten"
  bottom: "fc7_mbox_pose_perm"
  top: "fc7_mbox_pose_flat"
  flatten_param {
    axis: 1
  }
}
layer {
  name: "fc7_mbox_priorbox"
  type: "PriorBox"
  bottom: "fc7"
  bottom: "data"
  top: "fc7_mbox_priorbox"
  prior_box_param {
    min_size: 60
    max_size: 114
    aspect_ratio: 2
    aspect_ratio: 3
    flip: true
    clip: true
    variance: 0.1
    variance: 0.1
    variance: 0.2
    variance: 0.2
  }
}
layer {
  name: "conv6_2_mbox_loc"
  type: "Convolution"
  bottom: "conv6_2"
  top: "conv6_2_mbox_loc"
  param {
    lr_mult: 1
    decay_mult: 1
  }
  param {
    lr_mult: 2
    decay_mult: 0
  }
  convolution_param {
    num_output: 24
    pad: 1
    kernel_size: 3
    stride: 1
    weight_filler {
      type: "xavier"
    }
    bias_filler {
      type: "constant"
      value: 0
    }
  }
}
layer {
  name: "conv6_2_mbox_loc_perm"
  type: "Permute"
  bottom: "conv6_2_mbox_loc"
  top: "conv6_2_mbox_loc_perm"
  permute_param {
    order: 0
    order: 2
    order: 3
    order: 1
  }
}
layer {
  name: "conv6_2_mbox_loc_flat"
  type: "Flatten"
  bottom: "conv6_2_mbox_loc_perm"
  top: "conv6_2_mbox_loc_flat"
  flatten_param {
    axis: 1
  }
}
layer {
  name: "conv6_2_mbox_conf"
  type: "Convolution"
  bottom: "conv6_2"
  top: "conv6_2_mbox_conf"
  param {
    lr_mult: 1
    decay_mult: 1
  }
  param {
    lr_mult: 2
    decay_mult: 0
  }
  convolution_param {
    num_output: 72
    pad: 1
    kernel_size: 3
    stride: 1
    weight_filler {
      type: "xavier"
    }
    bias_filler {
      type: "constant"
      value: 0
    }
  }
}
layer {
  name: "conv6_2_mbox_conf_perm"
  type: "Permute"
  bottom: "conv6_2_mbox_conf"
  top: "conv6_2_mbox_conf_perm"
  permute_param {
    order: 0
    order: 2
    order: 3
    order: 1
  }
}
layer {
  name: "conv6_2_mbox_conf_flat"
  type: "Flatten"
  bottom: "conv6_2_mbox_conf_perm"
  top: "conv6_2_mbox_conf_flat"
  flatten_param {
    axis: 1
  }
}
layer {
  name: "conv6_2_mbox_pose"
  type: "Convolution"
  bottom: "conv6_2"
  top: "conv6_2_mbox_pose"
  param {
    lr_mult: 1
    decay_mult: 1
  }
  param {
    lr_mult: 2
    decay_mult: 0
  }
  convolution_param {
    num_output: 48
    pad: 1
    kernel_size: 3
    stride: 1
    weight_filler {
      type: "xavier"
    }
    bias_filler {
      type: "constant"
      value: 0
    }
  }
}
layer {
  name: "conv6_2_mbox_pose_perm"
  type: "Permute"
  bottom: "conv6_2_mbox_pose"
  top: "conv6_2_mbox_pose_perm"
  permute_param {
    order: 0
    order: 2
    order: 3
    order: 1
  }
}
layer {
  name: "conv6_2_mbox_pose_flat"
  type: "Flatten"
  bottom: "conv6_2_mbox_pose_perm"
  top: "conv6_2_mbox_pose_flat"
  flatten_param {
    axis: 1
  }
}
layer {
  name: "conv6_2_mbox_priorbox"
  type: "PriorBox"
  bottom: "conv6_2"
  bottom: "data"
  top: "conv6_2_mbox_priorbox"
  prior_box_param {
    min_size: 114
    max_size: 168
    aspect_ratio: 2
    aspect_ratio: 3
    flip: true
    clip: true
    variance: 0.1
    variance: 0.1
    variance: 0.2
    variance: 0.2
  }
}
layer {
  name: "conv7_2_mbox_loc"
  type: "Convolution"
  bottom: "conv7_2"
  top: "conv7_2_mbox_loc"
  param {
    lr_mult: 1
    decay_mult: 1
  }
  param {
    lr_mult: 2
    decay_mult: 0
  }
  convolution_param {
    num_output: 24
    pad: 1
    kernel_size: 3
    stride: 1
    weight_filler {
      type: "xavier"
    }
    bias_filler {
      type: "constant"
      value: 0
    }
  }
}
layer {
  name: "conv7_2_mbox_loc_perm"
  type: "Permute"
  bottom: "conv7_2_mbox_loc"
  top: "conv7_2_mbox_loc_perm"
  permute_param {
    order: 0
    order: 2
    order: 3
    order: 1
  }
}
layer {
  name: "conv7_2_mbox_loc_flat"
  type: "Flatten"
  bottom: "conv7_2_mbox_loc_perm"
  top: "conv7_2_mbox_loc_flat"
  flatten_param {
    axis: 1
  }
}
layer {
  name: "conv7_2_mbox_conf"
  type: "Convolution"
  bottom: "conv7_2"
  top: "conv7_2_mbox_conf"
  param {
    lr_mult: 1
    decay_mult: 1
  }
  param {
    lr_mult: 2
    decay_mult: 0
  }
  convolution_param {
    num_output: 72
    pad: 1
    kernel_size: 3
    stride: 1
    weight_filler {
      type: "xavier"
    }
    bias_filler {
      type: "constant"
      value: 0
    }
  }
}
layer {
  name: "conv7_2_mbox_conf_perm"
  type: "Permute"
  bottom: "conv7_2_mbox_conf"
  top: "conv7_2_mbox_conf_perm"
  permute_param {
    order: 0
    order: 2
    order: 3
    order: 1
  }
}
layer {
  name: "conv7_2_mbox_conf_flat"
  type: "Flatten"
  bottom: "conv7_2_mbox_conf_perm"
  top: "conv7_2_mbox_conf_flat"
  flatten_param {
    axis: 1
  }
}
layer {
  name: "conv7_2_mbox_pose"
  type: "Convolution"
  bottom: "conv7_2"
  top: "conv7_2_mbox_pose"
  param {
    lr_mult: 1
    decay_mult: 1
  }
  param {
    lr_mult: 2
    decay_mult: 0
  }
  convolution_param {
    num_output: 48
    pad: 1
    kernel_size: 3
    stride: 1
    weight_filler {
      type: "xavier"
    }
    bias_filler {
      type: "constant"
      value: 0
    }
  }
}
layer {
  name: "conv7_2_mbox_pose_perm"
  type: "Permute"
  bottom: "conv7_2_mbox_pose"
  top: "conv7_2_mbox_pose_perm"
  permute_param {
    order: 0
    order: 2
    order: 3
    order: 1
  }
}
layer {
  name: "conv7_2_mbox_pose_flat"
  type: "Flatten"
  bottom: "conv7_2_mbox_pose_perm"
  top: "conv7_2_mbox_pose_flat"
  flatten_param {
    axis: 1
  }
}
layer {
  name: "conv7_2_mbox_priorbox"
  type: "PriorBox"
  bottom: "conv7_2"
  bottom: "data"
  top: "conv7_2_mbox_priorbox"
  prior_box_param {
    min_size: 168
    max_size: 222
    aspect_ratio: 2
    aspect_ratio: 3
    flip: true
    clip: true
    variance: 0.1
    variance: 0.1
    variance: 0.2
    variance: 0.2
  }
}
layer {
  name: "conv8_2_mbox_loc"
  type: "Convolution"
  bottom: "conv8_2"
  top: "conv8_2_mbox_loc"
  param {
    lr_mult: 1
    decay_mult: 1
  }
  param {
    lr_mult: 2
    decay_mult: 0
  }
  convolution_param {
    num_output: 24
    pad: 1
    kernel_size: 3
    stride: 1
    weight_filler {
      type: "xavier"
    }
    bias_filler {
      type: "constant"
      value: 0
    }
  }
}
layer {
  name: "conv8_2_mbox_loc_perm"
  type: "Permute"
  bottom: "conv8_2_mbox_loc"
  top: "conv8_2_mbox_loc_perm"
  permute_param {
    order: 0
    order: 2
    order: 3
    order: 1
  }
}
layer {
  name: "conv8_2_mbox_loc_flat"
  type: "Flatten"
  bottom: "conv8_2_mbox_loc_perm"
  top: "conv8_2_mbox_loc_flat"
  flatten_param {
    axis: 1
  }
}
layer {
  name: "conv8_2_mbox_conf"
  type: "Convolution"
  bottom: "conv8_2"
  top: "conv8_2_mbox_conf"
  param {
    lr_mult: 1
    decay_mult: 1
  }
  param {
    lr_mult: 2
    decay_mult: 0
  }
  convolution_param {
    num_output: 72
    pad: 1
    kernel_size: 3
    stride: 1
    weight_filler {
      type: "xavier"
    }
    bias_filler {
      type: "constant"
      value: 0
    }
  }
}
layer {
  name: "conv8_2_mbox_conf_perm"
  type: "Permute"
  bottom: "conv8_2_mbox_conf"
  top: "conv8_2_mbox_conf_perm"
  permute_param {
    order: 0
    order: 2
    order: 3
    order: 1
  }
}
layer {
  name: "conv8_2_mbox_conf_flat"
  type: "Flatten"
  bottom: "conv8_2_mbox_conf_perm"
  top: "conv8_2_mbox_conf_flat"
  flatten_param {
    axis: 1
  }
}
layer {
  name: "conv8_2_mbox_pose"
  type: "Convolution"
  bottom: "conv8_2"
  top: "conv8_2_mbox_pose"
  param {
    lr_mult: 1
    decay_mult: 1
  }
  param {
    lr_mult: 2
    decay_mult: 0
  }
  convolution_param {
    num_output: 48
    pad: 1
    kernel_size: 3
    stride: 1
    weight_filler {
      type: "xavier"
    }
    bias_filler {
      type: "constant"
      value: 0
    }
  }
}
layer {
  name: "conv8_2_mbox_pose_perm"
  type: "Permute"
  bottom: "conv8_2_mbox_pose"
  top: "conv8_2_mbox_pose_perm"
  permute_param {
    order: 0
    order: 2
    order: 3
    order: 1
  }
}
layer {
  name: "conv8_2_mbox_pose_flat"
  type: "Flatten"
  bottom: "conv8_2_mbox_pose_perm"
  top: "conv8_2_mbox_pose_flat"
  flatten_param {
    axis: 1
  }
}
layer {
  name: "conv8_2_mbox_priorbox"
  type: "PriorBox"
  bottom: "conv8_2"
  bottom: "data"
  top: "conv8_2_mbox_priorbox"
  prior_box_param {
    min_size: 222
    max_size: 276
    aspect_ratio: 2
    aspect_ratio: 3
    flip: true
    clip: true
    variance: 0.1
    variance: 0.1
    variance: 0.2
    variance: 0.2
  }
}
layer {
  name: "pool6_mbox_loc"
  type: "Convolution"
  bottom: "pool6"
  top: "pool6_mbox_loc"
  param {
    lr_mult: 1
    decay_mult: 1
  }
  param {
    lr_mult: 2
    decay_mult: 0
  }
  convolution_param {
    num_output: 24
    pad: 1
    kernel_size: 3
    stride: 1
    weight_filler {
      type: "xavier"
    }
    bias_filler {
      type: "constant"
      value: 0
    }
  }
}
layer {
  name: "pool6_mbox_loc_perm"
  type: "Permute"
  bottom: "pool6_mbox_loc"
  top: "pool6_mbox_loc_perm"
  permute_param {
    order: 0
    order: 2
    order: 3
    order: 1
  }
}
layer {
  name: "pool6_mbox_loc_flat"
  type: "Flatten"
  bottom: "pool6_mbox_loc_perm"
  top: "pool6_mbox_loc_flat"
  flatten_param {
    axis: 1
  }
}
layer {
  name: "pool6_mbox_conf"
  type: "Convolution"
  bottom: "pool6"
  top: "pool6_mbox_conf"
  param {
    lr_mult: 1
    decay_mult: 1
  }
  param {
    lr_mult: 2
    decay_mult: 0
  }
  convolution_param {
    num_output: 72
    pad: 1
    kernel_size: 3
    stride: 1
    weight_filler {
      type: "xavier"
    }
    bias_filler {
      type: "constant"
      value: 0
    }
  }
}
layer {
  name: "pool6_mbox_conf_perm"
  type: "Permute"
  bottom: "pool6_mbox_conf"
  top: "pool6_mbox_conf_perm"
  permute_param {
    order: 0
    order: 2
    order: 3
    order: 1
  }
}
layer {
  name: "pool6_mbox_conf_flat"
  type: "Flatten"
  bottom: "pool6_mbox_conf_perm"
  top: "pool6_mbox_conf_flat"
  flatten_param {
    axis: 1
  }
}
layer {
  name: "pool6_mbox_pose"
  type: "Convolution"
  bottom: "pool6"
  top: "pool6_mbox_pose"
  param {
    lr_mult: 1
    decay_mult: 1
  }
  param {
    lr_mult: 2
    decay_mult: 0
  }
  convolution_param {
    num_output: 48
    pad: 1
    kernel_size: 3
    stride: 1
    weight_filler {
      type: "xavier"
    }
    bias_filler {
      type: "constant"
      value: 0
    }
  }
}
layer {
  name: "pool6_mbox_pose_perm"
  type: "Permute"
  bottom: "pool6_mbox_pose"
  top: "pool6_mbox_pose_perm"
  permute_param {
    order: 0
    order: 2
    order: 3
    order: 1
  }
}
layer {
  name: "pool6_mbox_pose_flat"
  type: "Flatten"
  bottom: "pool6_mbox_pose_perm"
  top: "pool6_mbox_pose_flat"
  flatten_param {
    axis: 1
  }
}
layer {
  name: "pool6_mbox_priorbox"
  type: "PriorBox"
  bottom: "pool6"
  bottom: "data"
  top: "pool6_mbox_priorbox"
  prior_box_param {
    min_size: 276
    max_size: 330
    aspect_ratio: 2
    aspect_ratio: 3
    flip: true
    clip: true
    variance: 0.1
    variance: 0.1
    variance: 0.2
    variance: 0.2
  }
}
layer {
  name: "mbox_loc"
  type: "Concat"
  bottom: "conv4_3_norm_mbox_loc_flat"
  bottom: "fc7_mbox_loc_flat"
  bottom: "conv6_2_mbox_loc_flat"
  bottom: "conv7_2_mbox_loc_flat"
  bottom: "conv8_2_mbox_loc_flat"
  bottom: "pool6_mbox_loc_flat"
  top: "mbox_loc"
  concat_param {
    axis: 1
  }
}
layer {
  name: "mbox_conf"
  type: "Concat"
  bottom: "conv4_3_norm_mbox_conf_flat"
  bottom: "fc7_mbox_conf_flat"
  bottom: "conv6_2_mbox_conf_flat"
  bottom: "conv7_2_mbox_conf_flat"
  bottom: "conv8_2_mbox_conf_flat"
  bottom: "pool6_mbox_conf_flat"
  top: "mbox_conf"
  concat_param {
    axis: 1
  }
}
layer {
  name: "mbox_pose"
  type: "Concat"
  bottom: "conv4_3_norm_mbox_pose_flat"
  bottom: "fc7_mbox_pose_flat"
  bottom: "conv6_2_mbox_pose_flat"
  bottom: "conv7_2_mbox_pose_flat"
  bottom: "conv8_2_mbox_pose_flat"
  bottom: "pool6_mbox_pose_flat"
  top: "mbox_pose"
  concat_param {
    axis: 1
  }
}
layer {
  name: "mbox_priorbox"
  type: "Concat"
  bottom: "conv4_3_norm_mbox_priorbox"
  bottom: "fc7_mbox_priorbox"
  bottom: "conv6_2_mbox_priorbox"
  bottom: "conv7_2_mbox_priorbox"
  bottom: "conv8_2_mbox_priorbox"
  bottom: "pool6_mbox_priorbox"
  top: "mbox_priorbox"
  concat_param {
    axis: 2
  }
}
layer {
  name: "mbox_loss"
  type: "MultiBoxPoseLoss"
  bottom: "mbox_loc"
  bottom: "mbox_conf"
  bottom: "mbox_pose"
  bottom: "mbox_priorbox"
  bottom: "label"
  top: "mbox_loss"
  include {
    phase: TRAIN
  }
  propagate_down: true
  propagate_down: true
  propagate_down: true
  propagate_down: false
  propagate_down: false
  loss_param {
    normalization: VALID
  }
  multibox_pose_loss_param {
    loc_loss_type: LocLossType_SMOOTH_L1
    conf_loss_type: ConfLossType_SOFTMAX
    loc_weight: 1
    num_classes: 12
    share_location: true
    match_type: MatchType_PER_PREDICTION
    overlap_threshold: 0.5
    use_prior_for_matching: true
    background_label_id: 0
    use_difficult_gt: true
    do_neg_mining: true
    neg_pos_ratio: 3
    neg_overlap: 0.5
    code_type: CENTER_SIZE
    num_poses: 8
    share_pose: true
  }
}
I0621 00:22:37.148424 101073 layer_factory.hpp:77] Creating layer data
I0621 00:22:37.148876 101073 net.cpp:91] Creating Layer data
I0621 00:22:37.148907 101073 net.cpp:399] data -> data
I0621 00:22:37.148943 101073 net.cpp:399] data -> label
I0621 00:22:37.149878 101143 db_lmdb.cpp:35] Opened lmdb data/3Dpascal/pascal3D/lmdb/train_bins=8_diff=False_numPascal=4_lmdb_300
I0621 00:22:37.350430 101073 annotated_data_layer.cpp:52] output data size: 32,3,300,300
I0621 00:22:37.446095 101073 net.cpp:141] Setting up data
I0621 00:22:37.446161 101073 net.cpp:148] Top shape: 32 3 300 300 (8640000)
I0621 00:22:37.446180 101073 net.cpp:148] Top shape: 1 1 1 9 (9)
I0621 00:22:37.446183 101073 net.cpp:156] Memory required for data: 34560036
I0621 00:22:37.446195 101073 layer_factory.hpp:77] Creating layer data_data_0_split
I0621 00:22:37.446209 101073 net.cpp:91] Creating Layer data_data_0_split
I0621 00:22:37.446216 101073 net.cpp:425] data_data_0_split <- data
I0621 00:22:37.446235 101073 net.cpp:399] data_data_0_split -> data_data_0_split_0
I0621 00:22:37.446246 101073 net.cpp:399] data_data_0_split -> data_data_0_split_1
I0621 00:22:37.446252 101073 net.cpp:399] data_data_0_split -> data_data_0_split_2
I0621 00:22:37.446259 101073 net.cpp:399] data_data_0_split -> data_data_0_split_3
I0621 00:22:37.446265 101073 net.cpp:399] data_data_0_split -> data_data_0_split_4
I0621 00:22:37.446270 101073 net.cpp:399] data_data_0_split -> data_data_0_split_5
I0621 00:22:37.446276 101073 net.cpp:399] data_data_0_split -> data_data_0_split_6
I0621 00:22:37.446368 101073 net.cpp:141] Setting up data_data_0_split
I0621 00:22:37.446375 101073 net.cpp:148] Top shape: 32 3 300 300 (8640000)
I0621 00:22:37.446379 101073 net.cpp:148] Top shape: 32 3 300 300 (8640000)
I0621 00:22:37.446383 101073 net.cpp:148] Top shape: 32 3 300 300 (8640000)
I0621 00:22:37.446387 101073 net.cpp:148] Top shape: 32 3 300 300 (8640000)
I0621 00:22:37.446389 101073 net.cpp:148] Top shape: 32 3 300 300 (8640000)
I0621 00:22:37.446393 101073 net.cpp:148] Top shape: 32 3 300 300 (8640000)
I0621 00:22:37.446398 101073 net.cpp:148] Top shape: 32 3 300 300 (8640000)
I0621 00:22:37.446400 101073 net.cpp:156] Memory required for data: 276480036
I0621 00:22:37.446403 101073 layer_factory.hpp:77] Creating layer conv1_1
I0621 00:22:37.446424 101073 net.cpp:91] Creating Layer conv1_1
I0621 00:22:37.446429 101073 net.cpp:425] conv1_1 <- data_data_0_split_0
I0621 00:22:37.446434 101073 net.cpp:399] conv1_1 -> conv1_1
I0621 00:22:38.261859 101073 net.cpp:141] Setting up conv1_1
I0621 00:22:38.261881 101073 net.cpp:148] Top shape: 32 64 300 300 (184320000)
I0621 00:22:38.261885 101073 net.cpp:156] Memory required for data: 1013760036
I0621 00:22:38.261926 101073 layer_factory.hpp:77] Creating layer relu1_1
I0621 00:22:38.261940 101073 net.cpp:91] Creating Layer relu1_1
I0621 00:22:38.261945 101073 net.cpp:425] relu1_1 <- conv1_1
I0621 00:22:38.261950 101073 net.cpp:386] relu1_1 -> conv1_1 (in-place)
I0621 00:22:38.262225 101073 net.cpp:141] Setting up relu1_1
I0621 00:22:38.262236 101073 net.cpp:148] Top shape: 32 64 300 300 (184320000)
I0621 00:22:38.262239 101073 net.cpp:156] Memory required for data: 1751040036
I0621 00:22:38.262243 101073 layer_factory.hpp:77] Creating layer conv1_2
I0621 00:22:38.262256 101073 net.cpp:91] Creating Layer conv1_2
I0621 00:22:38.262259 101073 net.cpp:425] conv1_2 <- conv1_1
I0621 00:22:38.262264 101073 net.cpp:399] conv1_2 -> conv1_2
I0621 00:22:38.287798 101073 net.cpp:141] Setting up conv1_2
I0621 00:22:38.287814 101073 net.cpp:148] Top shape: 32 64 300 300 (184320000)
I0621 00:22:38.287818 101073 net.cpp:156] Memory required for data: 2488320036
I0621 00:22:38.287827 101073 layer_factory.hpp:77] Creating layer relu1_2
I0621 00:22:38.287835 101073 net.cpp:91] Creating Layer relu1_2
I0621 00:22:38.287837 101073 net.cpp:425] relu1_2 <- conv1_2
I0621 00:22:38.287842 101073 net.cpp:386] relu1_2 -> conv1_2 (in-place)
I0621 00:22:38.295306 101073 net.cpp:141] Setting up relu1_2
I0621 00:22:38.295317 101073 net.cpp:148] Top shape: 32 64 300 300 (184320000)
I0621 00:22:38.295320 101073 net.cpp:156] Memory required for data: 3225600036
I0621 00:22:38.295323 101073 layer_factory.hpp:77] Creating layer pool1
I0621 00:22:38.295336 101073 net.cpp:91] Creating Layer pool1
I0621 00:22:38.295338 101073 net.cpp:425] pool1 <- conv1_2
I0621 00:22:38.295344 101073 net.cpp:399] pool1 -> pool1
I0621 00:22:38.295393 101073 net.cpp:141] Setting up pool1
I0621 00:22:38.295400 101073 net.cpp:148] Top shape: 32 64 150 150 (46080000)
I0621 00:22:38.295403 101073 net.cpp:156] Memory required for data: 3409920036
I0621 00:22:38.295405 101073 layer_factory.hpp:77] Creating layer conv2_1
I0621 00:22:38.295414 101073 net.cpp:91] Creating Layer conv2_1
I0621 00:22:38.295418 101073 net.cpp:425] conv2_1 <- pool1
I0621 00:22:38.295423 101073 net.cpp:399] conv2_1 -> conv2_1
I0621 00:22:38.304867 101073 net.cpp:141] Setting up conv2_1
I0621 00:22:38.304880 101073 net.cpp:148] Top shape: 32 128 150 150 (92160000)
I0621 00:22:38.304883 101073 net.cpp:156] Memory required for data: 3778560036
I0621 00:22:38.304891 101073 layer_factory.hpp:77] Creating layer relu2_1
I0621 00:22:38.304898 101073 net.cpp:91] Creating Layer relu2_1
I0621 00:22:38.304901 101073 net.cpp:425] relu2_1 <- conv2_1
I0621 00:22:38.304905 101073 net.cpp:386] relu2_1 -> conv2_1 (in-place)
I0621 00:22:38.305841 101073 net.cpp:141] Setting up relu2_1
I0621 00:22:38.305850 101073 net.cpp:148] Top shape: 32 128 150 150 (92160000)
I0621 00:22:38.305852 101073 net.cpp:156] Memory required for data: 4147200036
I0621 00:22:38.305855 101073 layer_factory.hpp:77] Creating layer conv2_2
I0621 00:22:38.305863 101073 net.cpp:91] Creating Layer conv2_2
I0621 00:22:38.305866 101073 net.cpp:425] conv2_2 <- conv2_1
I0621 00:22:38.305872 101073 net.cpp:399] conv2_2 -> conv2_2
I0621 00:22:38.310442 101073 net.cpp:141] Setting up conv2_2
I0621 00:22:38.310456 101073 net.cpp:148] Top shape: 32 128 150 150 (92160000)
I0621 00:22:38.310458 101073 net.cpp:156] Memory required for data: 4515840036
I0621 00:22:38.310464 101073 layer_factory.hpp:77] Creating layer relu2_2
I0621 00:22:38.310469 101073 net.cpp:91] Creating Layer relu2_2
I0621 00:22:38.310472 101073 net.cpp:425] relu2_2 <- conv2_2
I0621 00:22:38.310477 101073 net.cpp:386] relu2_2 -> conv2_2 (in-place)
I0621 00:22:38.311506 101073 net.cpp:141] Setting up relu2_2
I0621 00:22:38.311517 101073 net.cpp:148] Top shape: 32 128 150 150 (92160000)
I0621 00:22:38.311519 101073 net.cpp:156] Memory required for data: 4884480036
I0621 00:22:38.311522 101073 layer_factory.hpp:77] Creating layer pool2
I0621 00:22:38.311529 101073 net.cpp:91] Creating Layer pool2
I0621 00:22:38.311532 101073 net.cpp:425] pool2 <- conv2_2
I0621 00:22:38.311537 101073 net.cpp:399] pool2 -> pool2
I0621 00:22:38.311586 101073 net.cpp:141] Setting up pool2
I0621 00:22:38.311594 101073 net.cpp:148] Top shape: 32 128 75 75 (23040000)
I0621 00:22:38.311596 101073 net.cpp:156] Memory required for data: 4976640036
I0621 00:22:38.311599 101073 layer_factory.hpp:77] Creating layer conv3_1
I0621 00:22:38.311606 101073 net.cpp:91] Creating Layer conv3_1
I0621 00:22:38.311609 101073 net.cpp:425] conv3_1 <- pool2
I0621 00:22:38.311614 101073 net.cpp:399] conv3_1 -> conv3_1
I0621 00:22:38.333530 101073 net.cpp:141] Setting up conv3_1
I0621 00:22:38.333544 101073 net.cpp:148] Top shape: 32 256 75 75 (46080000)
I0621 00:22:38.333546 101073 net.cpp:156] Memory required for data: 5160960036
I0621 00:22:38.333556 101073 layer_factory.hpp:77] Creating layer relu3_1
I0621 00:22:38.333562 101073 net.cpp:91] Creating Layer relu3_1
I0621 00:22:38.333565 101073 net.cpp:425] relu3_1 <- conv3_1
I0621 00:22:38.333570 101073 net.cpp:386] relu3_1 -> conv3_1 (in-place)
I0621 00:22:38.334072 101073 net.cpp:141] Setting up relu3_1
I0621 00:22:38.334084 101073 net.cpp:148] Top shape: 32 256 75 75 (46080000)
I0621 00:22:38.334086 101073 net.cpp:156] Memory required for data: 5345280036
I0621 00:22:38.334089 101073 layer_factory.hpp:77] Creating layer conv3_2
I0621 00:22:38.334098 101073 net.cpp:91] Creating Layer conv3_2
I0621 00:22:38.334101 101073 net.cpp:425] conv3_2 <- conv3_1
I0621 00:22:38.334107 101073 net.cpp:399] conv3_2 -> conv3_2
I0621 00:22:38.358367 101073 net.cpp:141] Setting up conv3_2
I0621 00:22:38.358382 101073 net.cpp:148] Top shape: 32 256 75 75 (46080000)
I0621 00:22:38.358386 101073 net.cpp:156] Memory required for data: 5529600036
I0621 00:22:38.358391 101073 layer_factory.hpp:77] Creating layer relu3_2
I0621 00:22:38.358397 101073 net.cpp:91] Creating Layer relu3_2
I0621 00:22:38.358399 101073 net.cpp:425] relu3_2 <- conv3_2
I0621 00:22:38.358404 101073 net.cpp:386] relu3_2 -> conv3_2 (in-place)
I0621 00:22:38.359678 101073 net.cpp:141] Setting up relu3_2
I0621 00:22:38.359686 101073 net.cpp:148] Top shape: 32 256 75 75 (46080000)
I0621 00:22:38.359689 101073 net.cpp:156] Memory required for data: 5713920036
I0621 00:22:38.359691 101073 layer_factory.hpp:77] Creating layer conv3_3
I0621 00:22:38.359702 101073 net.cpp:91] Creating Layer conv3_3
I0621 00:22:38.359705 101073 net.cpp:425] conv3_3 <- conv3_2
I0621 00:22:38.359710 101073 net.cpp:399] conv3_3 -> conv3_3
I0621 00:22:38.364809 101073 net.cpp:141] Setting up conv3_3
I0621 00:22:38.364822 101073 net.cpp:148] Top shape: 32 256 75 75 (46080000)
I0621 00:22:38.364825 101073 net.cpp:156] Memory required for data: 5898240036
I0621 00:22:38.364830 101073 layer_factory.hpp:77] Creating layer relu3_3
I0621 00:22:38.364835 101073 net.cpp:91] Creating Layer relu3_3
I0621 00:22:38.364838 101073 net.cpp:425] relu3_3 <- conv3_3
I0621 00:22:38.364843 101073 net.cpp:386] relu3_3 -> conv3_3 (in-place)
I0621 00:22:38.365100 101073 net.cpp:141] Setting up relu3_3
I0621 00:22:38.365110 101073 net.cpp:148] Top shape: 32 256 75 75 (46080000)
I0621 00:22:38.365113 101073 net.cpp:156] Memory required for data: 6082560036
I0621 00:22:38.365116 101073 layer_factory.hpp:77] Creating layer pool3
I0621 00:22:38.365123 101073 net.cpp:91] Creating Layer pool3
I0621 00:22:38.365126 101073 net.cpp:425] pool3 <- conv3_3
I0621 00:22:38.365131 101073 net.cpp:399] pool3 -> pool3
I0621 00:22:38.365180 101073 net.cpp:141] Setting up pool3
I0621 00:22:38.365186 101073 net.cpp:148] Top shape: 32 256 38 38 (11829248)
I0621 00:22:38.365188 101073 net.cpp:156] Memory required for data: 6129877028
I0621 00:22:38.365191 101073 layer_factory.hpp:77] Creating layer conv4_1
I0621 00:22:38.365200 101073 net.cpp:91] Creating Layer conv4_1
I0621 00:22:38.365203 101073 net.cpp:425] conv4_1 <- pool3
I0621 00:22:38.365208 101073 net.cpp:399] conv4_1 -> conv4_1
I0621 00:22:38.393597 101073 net.cpp:141] Setting up conv4_1
I0621 00:22:38.393621 101073 net.cpp:148] Top shape: 32 512 38 38 (23658496)
I0621 00:22:38.393625 101073 net.cpp:156] Memory required for data: 6224511012
I0621 00:22:38.393661 101073 layer_factory.hpp:77] Creating layer relu4_1
I0621 00:22:38.393676 101073 net.cpp:91] Creating Layer relu4_1
I0621 00:22:38.393684 101073 net.cpp:425] relu4_1 <- conv4_1
I0621 00:22:38.393697 101073 net.cpp:386] relu4_1 -> conv4_1 (in-place)
I0621 00:22:38.394588 101073 net.cpp:141] Setting up relu4_1
I0621 00:22:38.394598 101073 net.cpp:148] Top shape: 32 512 38 38 (23658496)
I0621 00:22:38.394601 101073 net.cpp:156] Memory required for data: 6319144996
I0621 00:22:38.394604 101073 layer_factory.hpp:77] Creating layer conv4_2
I0621 00:22:38.394615 101073 net.cpp:91] Creating Layer conv4_2
I0621 00:22:38.394619 101073 net.cpp:425] conv4_2 <- conv4_1
I0621 00:22:38.394625 101073 net.cpp:399] conv4_2 -> conv4_2
I0621 00:22:38.416610 101073 net.cpp:141] Setting up conv4_2
I0621 00:22:38.416637 101073 net.cpp:148] Top shape: 32 512 38 38 (23658496)
I0621 00:22:38.416640 101073 net.cpp:156] Memory required for data: 6413778980
I0621 00:22:38.416658 101073 layer_factory.hpp:77] Creating layer relu4_2
I0621 00:22:38.416669 101073 net.cpp:91] Creating Layer relu4_2
I0621 00:22:38.416676 101073 net.cpp:425] relu4_2 <- conv4_2
I0621 00:22:38.416682 101073 net.cpp:386] relu4_2 -> conv4_2 (in-place)
I0621 00:22:38.418378 101073 net.cpp:141] Setting up relu4_2
I0621 00:22:38.418388 101073 net.cpp:148] Top shape: 32 512 38 38 (23658496)
I0621 00:22:38.418391 101073 net.cpp:156] Memory required for data: 6508412964
I0621 00:22:38.418395 101073 layer_factory.hpp:77] Creating layer conv4_3
I0621 00:22:38.418409 101073 net.cpp:91] Creating Layer conv4_3
I0621 00:22:38.418413 101073 net.cpp:425] conv4_3 <- conv4_2
I0621 00:22:38.418421 101073 net.cpp:399] conv4_3 -> conv4_3
I0621 00:22:38.437029 101073 net.cpp:141] Setting up conv4_3
I0621 00:22:38.437044 101073 net.cpp:148] Top shape: 32 512 38 38 (23658496)
I0621 00:22:38.437048 101073 net.cpp:156] Memory required for data: 6603046948
I0621 00:22:38.437054 101073 layer_factory.hpp:77] Creating layer relu4_3
I0621 00:22:38.437062 101073 net.cpp:91] Creating Layer relu4_3
I0621 00:22:38.437068 101073 net.cpp:425] relu4_3 <- conv4_3
I0621 00:22:38.437073 101073 net.cpp:386] relu4_3 -> conv4_3 (in-place)
I0621 00:22:38.438282 101073 net.cpp:141] Setting up relu4_3
I0621 00:22:38.438293 101073 net.cpp:148] Top shape: 32 512 38 38 (23658496)
I0621 00:22:38.438297 101073 net.cpp:156] Memory required for data: 6697680932
I0621 00:22:38.438300 101073 layer_factory.hpp:77] Creating layer conv4_3_relu4_3_0_split
I0621 00:22:38.438308 101073 net.cpp:91] Creating Layer conv4_3_relu4_3_0_split
I0621 00:22:38.438313 101073 net.cpp:425] conv4_3_relu4_3_0_split <- conv4_3
I0621 00:22:38.438320 101073 net.cpp:399] conv4_3_relu4_3_0_split -> conv4_3_relu4_3_0_split_0
I0621 00:22:38.438328 101073 net.cpp:399] conv4_3_relu4_3_0_split -> conv4_3_relu4_3_0_split_1
I0621 00:22:38.438369 101073 net.cpp:141] Setting up conv4_3_relu4_3_0_split
I0621 00:22:38.438375 101073 net.cpp:148] Top shape: 32 512 38 38 (23658496)
I0621 00:22:38.438380 101073 net.cpp:148] Top shape: 32 512 38 38 (23658496)
I0621 00:22:38.438381 101073 net.cpp:156] Memory required for data: 6886948900
I0621 00:22:38.438385 101073 layer_factory.hpp:77] Creating layer pool4
I0621 00:22:38.438393 101073 net.cpp:91] Creating Layer pool4
I0621 00:22:38.438397 101073 net.cpp:425] pool4 <- conv4_3_relu4_3_0_split_0
I0621 00:22:38.438403 101073 net.cpp:399] pool4 -> pool4
I0621 00:22:38.438437 101073 net.cpp:141] Setting up pool4
I0621 00:22:38.438443 101073 net.cpp:148] Top shape: 32 512 19 19 (5914624)
I0621 00:22:38.438446 101073 net.cpp:156] Memory required for data: 6910607396
I0621 00:22:38.438449 101073 layer_factory.hpp:77] Creating layer conv5_1
I0621 00:22:38.438460 101073 net.cpp:91] Creating Layer conv5_1
I0621 00:22:38.438463 101073 net.cpp:425] conv5_1 <- pool4
I0621 00:22:38.438470 101073 net.cpp:399] conv5_1 -> conv5_1
I0621 00:22:38.460422 101073 net.cpp:141] Setting up conv5_1
I0621 00:22:38.460446 101073 net.cpp:148] Top shape: 32 512 19 19 (5914624)
I0621 00:22:38.460450 101073 net.cpp:156] Memory required for data: 6934265892
I0621 00:22:38.460482 101073 layer_factory.hpp:77] Creating layer relu5_1
I0621 00:22:38.460492 101073 net.cpp:91] Creating Layer relu5_1
I0621 00:22:38.460499 101073 net.cpp:425] relu5_1 <- conv5_1
I0621 00:22:38.460505 101073 net.cpp:386] relu5_1 -> conv5_1 (in-place)
I0621 00:22:38.463682 101073 net.cpp:141] Setting up relu5_1
I0621 00:22:38.463696 101073 net.cpp:148] Top shape: 32 512 19 19 (5914624)
I0621 00:22:38.463698 101073 net.cpp:156] Memory required for data: 6957924388
I0621 00:22:38.463701 101073 layer_factory.hpp:77] Creating layer conv5_2
I0621 00:22:38.463716 101073 net.cpp:91] Creating Layer conv5_2
I0621 00:22:38.463718 101073 net.cpp:425] conv5_2 <- conv5_1
I0621 00:22:38.463726 101073 net.cpp:399] conv5_2 -> conv5_2
I0621 00:22:38.509294 101073 net.cpp:141] Setting up conv5_2
I0621 00:22:38.509310 101073 net.cpp:148] Top shape: 32 512 19 19 (5914624)
I0621 00:22:38.509312 101073 net.cpp:156] Memory required for data: 6981582884
I0621 00:22:38.509320 101073 layer_factory.hpp:77] Creating layer relu5_2
I0621 00:22:38.509327 101073 net.cpp:91] Creating Layer relu5_2
I0621 00:22:38.509331 101073 net.cpp:425] relu5_2 <- conv5_2
I0621 00:22:38.509337 101073 net.cpp:386] relu5_2 -> conv5_2 (in-place)
I0621 00:22:38.544775 101073 net.cpp:141] Setting up relu5_2
I0621 00:22:38.544790 101073 net.cpp:148] Top shape: 32 512 19 19 (5914624)
I0621 00:22:38.544793 101073 net.cpp:156] Memory required for data: 7005241380
I0621 00:22:38.544797 101073 layer_factory.hpp:77] Creating layer conv5_3
I0621 00:22:38.544811 101073 net.cpp:91] Creating Layer conv5_3
I0621 00:22:38.544816 101073 net.cpp:425] conv5_3 <- conv5_2
I0621 00:22:38.544821 101073 net.cpp:399] conv5_3 -> conv5_3
I0621 00:22:38.577338 101073 net.cpp:141] Setting up conv5_3
I0621 00:22:38.577354 101073 net.cpp:148] Top shape: 32 512 19 19 (5914624)
I0621 00:22:38.577358 101073 net.cpp:156] Memory required for data: 7028899876
I0621 00:22:38.577365 101073 layer_factory.hpp:77] Creating layer relu5_3
I0621 00:22:38.577379 101073 net.cpp:91] Creating Layer relu5_3
I0621 00:22:38.577384 101073 net.cpp:425] relu5_3 <- conv5_3
I0621 00:22:38.577390 101073 net.cpp:386] relu5_3 -> conv5_3 (in-place)
I0621 00:22:38.588630 101073 net.cpp:141] Setting up relu5_3
I0621 00:22:38.588644 101073 net.cpp:148] Top shape: 32 512 19 19 (5914624)
I0621 00:22:38.588647 101073 net.cpp:156] Memory required for data: 7052558372
I0621 00:22:38.588651 101073 layer_factory.hpp:77] Creating layer pool5
I0621 00:22:38.588660 101073 net.cpp:91] Creating Layer pool5
I0621 00:22:38.588665 101073 net.cpp:425] pool5 <- conv5_3
I0621 00:22:38.588672 101073 net.cpp:399] pool5 -> pool5
I0621 00:22:38.588719 101073 net.cpp:141] Setting up pool5
I0621 00:22:38.588727 101073 net.cpp:148] Top shape: 32 512 19 19 (5914624)
I0621 00:22:38.588729 101073 net.cpp:156] Memory required for data: 7076216868
I0621 00:22:38.588732 101073 layer_factory.hpp:77] Creating layer fc6
I0621 00:22:38.588750 101073 net.cpp:91] Creating Layer fc6
I0621 00:22:38.588754 101073 net.cpp:425] fc6 <- pool5
I0621 00:22:38.588762 101073 net.cpp:399] fc6 -> fc6
I0621 00:22:38.623412 101073 net.cpp:141] Setting up fc6
I0621 00:22:38.623452 101073 net.cpp:148] Top shape: 32 1024 19 19 (11829248)
I0621 00:22:38.623456 101073 net.cpp:156] Memory required for data: 7123533860
I0621 00:22:38.623469 101073 layer_factory.hpp:77] Creating layer relu6
I0621 00:22:38.623482 101073 net.cpp:91] Creating Layer relu6
I0621 00:22:38.623488 101073 net.cpp:425] relu6 <- fc6
I0621 00:22:38.623495 101073 net.cpp:386] relu6 -> fc6 (in-place)
I0621 00:22:38.623754 101073 net.cpp:141] Setting up relu6
I0621 00:22:38.623764 101073 net.cpp:148] Top shape: 32 1024 19 19 (11829248)
I0621 00:22:38.623766 101073 net.cpp:156] Memory required for data: 7170850852
I0621 00:22:38.623770 101073 layer_factory.hpp:77] Creating layer fc7
I0621 00:22:38.623785 101073 net.cpp:91] Creating Layer fc7
I0621 00:22:38.623788 101073 net.cpp:425] fc7 <- fc6
I0621 00:22:38.623795 101073 net.cpp:399] fc7 -> fc7
I0621 00:22:38.637145 101073 net.cpp:141] Setting up fc7
I0621 00:22:38.637181 101073 net.cpp:148] Top shape: 32 1024 19 19 (11829248)
I0621 00:22:38.637184 101073 net.cpp:156] Memory required for data: 7218167844
I0621 00:22:38.637192 101073 layer_factory.hpp:77] Creating layer relu7
I0621 00:22:38.637198 101073 net.cpp:91] Creating Layer relu7
I0621 00:22:38.637203 101073 net.cpp:425] relu7 <- fc7
I0621 00:22:38.637209 101073 net.cpp:386] relu7 -> fc7 (in-place)
I0621 00:22:38.640141 101073 net.cpp:141] Setting up relu7
I0621 00:22:38.640153 101073 net.cpp:148] Top shape: 32 1024 19 19 (11829248)
I0621 00:22:38.640156 101073 net.cpp:156] Memory required for data: 7265484836
I0621 00:22:38.640161 101073 layer_factory.hpp:77] Creating layer fc7_relu7_0_split
I0621 00:22:38.640169 101073 net.cpp:91] Creating Layer fc7_relu7_0_split
I0621 00:22:38.640175 101073 net.cpp:425] fc7_relu7_0_split <- fc7
I0621 00:22:38.640182 101073 net.cpp:399] fc7_relu7_0_split -> fc7_relu7_0_split_0
I0621 00:22:38.640189 101073 net.cpp:399] fc7_relu7_0_split -> fc7_relu7_0_split_1
I0621 00:22:38.640202 101073 net.cpp:399] fc7_relu7_0_split -> fc7_relu7_0_split_2
I0621 00:22:38.640211 101073 net.cpp:399] fc7_relu7_0_split -> fc7_relu7_0_split_3
I0621 00:22:38.640216 101073 net.cpp:399] fc7_relu7_0_split -> fc7_relu7_0_split_4
I0621 00:22:38.640290 101073 net.cpp:141] Setting up fc7_relu7_0_split
I0621 00:22:38.640295 101073 net.cpp:148] Top shape: 32 1024 19 19 (11829248)
I0621 00:22:38.640300 101073 net.cpp:148] Top shape: 32 1024 19 19 (11829248)
I0621 00:22:38.640303 101073 net.cpp:148] Top shape: 32 1024 19 19 (11829248)
I0621 00:22:38.640306 101073 net.cpp:148] Top shape: 32 1024 19 19 (11829248)
I0621 00:22:38.640310 101073 net.cpp:148] Top shape: 32 1024 19 19 (11829248)
I0621 00:22:38.640311 101073 net.cpp:156] Memory required for data: 7502069796
I0621 00:22:38.640314 101073 layer_factory.hpp:77] Creating layer conv6_1
I0621 00:22:38.640326 101073 net.cpp:91] Creating Layer conv6_1
I0621 00:22:38.640331 101073 net.cpp:425] conv6_1 <- fc7_relu7_0_split_0
I0621 00:22:38.640339 101073 net.cpp:399] conv6_1 -> conv6_1
I0621 00:22:38.649585 101073 net.cpp:141] Setting up conv6_1
I0621 00:22:38.649600 101073 net.cpp:148] Top shape: 32 256 19 19 (2957312)
I0621 00:22:38.649603 101073 net.cpp:156] Memory required for data: 7513899044
I0621 00:22:38.649610 101073 layer_factory.hpp:77] Creating layer conv6_1_relu
I0621 00:22:38.649617 101073 net.cpp:91] Creating Layer conv6_1_relu
I0621 00:22:38.649621 101073 net.cpp:425] conv6_1_relu <- conv6_1
I0621 00:22:38.649626 101073 net.cpp:386] conv6_1_relu -> conv6_1 (in-place)
I0621 00:22:38.652595 101073 net.cpp:141] Setting up conv6_1_relu
I0621 00:22:38.652607 101073 net.cpp:148] Top shape: 32 256 19 19 (2957312)
I0621 00:22:38.652611 101073 net.cpp:156] Memory required for data: 7525728292
I0621 00:22:38.652614 101073 layer_factory.hpp:77] Creating layer conv6_2
I0621 00:22:38.652627 101073 net.cpp:91] Creating Layer conv6_2
I0621 00:22:38.652631 101073 net.cpp:425] conv6_2 <- conv6_1
I0621 00:22:38.652638 101073 net.cpp:399] conv6_2 -> conv6_2
I0621 00:22:38.668066 101073 net.cpp:141] Setting up conv6_2
I0621 00:22:38.668081 101073 net.cpp:148] Top shape: 32 512 10 10 (1638400)
I0621 00:22:38.668084 101073 net.cpp:156] Memory required for data: 7532281892
I0621 00:22:38.668100 101073 layer_factory.hpp:77] Creating layer conv6_2_relu
I0621 00:22:38.668112 101073 net.cpp:91] Creating Layer conv6_2_relu
I0621 00:22:38.668119 101073 net.cpp:425] conv6_2_relu <- conv6_2
I0621 00:22:38.668125 101073 net.cpp:386] conv6_2_relu -> conv6_2 (in-place)
I0621 00:22:38.671071 101073 net.cpp:141] Setting up conv6_2_relu
I0621 00:22:38.671080 101073 net.cpp:148] Top shape: 32 512 10 10 (1638400)
I0621 00:22:38.671083 101073 net.cpp:156] Memory required for data: 7538835492
I0621 00:22:38.671087 101073 layer_factory.hpp:77] Creating layer conv6_2_conv6_2_relu_0_split
I0621 00:22:38.671094 101073 net.cpp:91] Creating Layer conv6_2_conv6_2_relu_0_split
I0621 00:22:38.671097 101073 net.cpp:425] conv6_2_conv6_2_relu_0_split <- conv6_2
I0621 00:22:38.671104 101073 net.cpp:399] conv6_2_conv6_2_relu_0_split -> conv6_2_conv6_2_relu_0_split_0
I0621 00:22:38.671123 101073 net.cpp:399] conv6_2_conv6_2_relu_0_split -> conv6_2_conv6_2_relu_0_split_1
I0621 00:22:38.671131 101073 net.cpp:399] conv6_2_conv6_2_relu_0_split -> conv6_2_conv6_2_relu_0_split_2
I0621 00:22:38.671138 101073 net.cpp:399] conv6_2_conv6_2_relu_0_split -> conv6_2_conv6_2_relu_0_split_3
I0621 00:22:38.671145 101073 net.cpp:399] conv6_2_conv6_2_relu_0_split -> conv6_2_conv6_2_relu_0_split_4
I0621 00:22:38.671219 101073 net.cpp:141] Setting up conv6_2_conv6_2_relu_0_split
I0621 00:22:38.671227 101073 net.cpp:148] Top shape: 32 512 10 10 (1638400)
I0621 00:22:38.671231 101073 net.cpp:148] Top shape: 32 512 10 10 (1638400)
I0621 00:22:38.671234 101073 net.cpp:148] Top shape: 32 512 10 10 (1638400)
I0621 00:22:38.671237 101073 net.cpp:148] Top shape: 32 512 10 10 (1638400)
I0621 00:22:38.671239 101073 net.cpp:148] Top shape: 32 512 10 10 (1638400)
I0621 00:22:38.671242 101073 net.cpp:156] Memory required for data: 7571603492
I0621 00:22:38.671246 101073 layer_factory.hpp:77] Creating layer conv7_1
I0621 00:22:38.671257 101073 net.cpp:91] Creating Layer conv7_1
I0621 00:22:38.671260 101073 net.cpp:425] conv7_1 <- conv6_2_conv6_2_relu_0_split_0
I0621 00:22:38.671268 101073 net.cpp:399] conv7_1 -> conv7_1
I0621 00:22:38.680493 101073 net.cpp:141] Setting up conv7_1
I0621 00:22:38.680506 101073 net.cpp:148] Top shape: 32 128 10 10 (409600)
I0621 00:22:38.680510 101073 net.cpp:156] Memory required for data: 7573241892
I0621 00:22:38.680516 101073 layer_factory.hpp:77] Creating layer conv7_1_relu
I0621 00:22:38.680522 101073 net.cpp:91] Creating Layer conv7_1_relu
I0621 00:22:38.680526 101073 net.cpp:425] conv7_1_relu <- conv7_1
I0621 00:22:38.680531 101073 net.cpp:386] conv7_1_relu -> conv7_1 (in-place)
I0621 00:22:38.683506 101073 net.cpp:141] Setting up conv7_1_relu
I0621 00:22:38.683518 101073 net.cpp:148] Top shape: 32 128 10 10 (409600)
I0621 00:22:38.683521 101073 net.cpp:156] Memory required for data: 7574880292
I0621 00:22:38.683524 101073 layer_factory.hpp:77] Creating layer conv7_2
I0621 00:22:38.683537 101073 net.cpp:91] Creating Layer conv7_2
I0621 00:22:38.683547 101073 net.cpp:425] conv7_2 <- conv7_1
I0621 00:22:38.683554 101073 net.cpp:399] conv7_2 -> conv7_2
I0621 00:22:38.692916 101073 net.cpp:141] Setting up conv7_2
I0621 00:22:38.692930 101073 net.cpp:148] Top shape: 32 256 5 5 (204800)
I0621 00:22:38.692934 101073 net.cpp:156] Memory required for data: 7575699492
I0621 00:22:38.692939 101073 layer_factory.hpp:77] Creating layer conv7_2_relu
I0621 00:22:38.692946 101073 net.cpp:91] Creating Layer conv7_2_relu
I0621 00:22:38.692950 101073 net.cpp:425] conv7_2_relu <- conv7_2
I0621 00:22:38.692956 101073 net.cpp:386] conv7_2_relu -> conv7_2 (in-place)
I0621 00:22:38.694051 101073 net.cpp:141] Setting up conv7_2_relu
I0621 00:22:38.694062 101073 net.cpp:148] Top shape: 32 256 5 5 (204800)
I0621 00:22:38.694066 101073 net.cpp:156] Memory required for data: 7576518692
I0621 00:22:38.694068 101073 layer_factory.hpp:77] Creating layer conv7_2_conv7_2_relu_0_split
I0621 00:22:38.694077 101073 net.cpp:91] Creating Layer conv7_2_conv7_2_relu_0_split
I0621 00:22:38.694079 101073 net.cpp:425] conv7_2_conv7_2_relu_0_split <- conv7_2
I0621 00:22:38.694085 101073 net.cpp:399] conv7_2_conv7_2_relu_0_split -> conv7_2_conv7_2_relu_0_split_0
I0621 00:22:38.694092 101073 net.cpp:399] conv7_2_conv7_2_relu_0_split -> conv7_2_conv7_2_relu_0_split_1
I0621 00:22:38.694099 101073 net.cpp:399] conv7_2_conv7_2_relu_0_split -> conv7_2_conv7_2_relu_0_split_2
I0621 00:22:38.694105 101073 net.cpp:399] conv7_2_conv7_2_relu_0_split -> conv7_2_conv7_2_relu_0_split_3
I0621 00:22:38.694109 101073 net.cpp:399] conv7_2_conv7_2_relu_0_split -> conv7_2_conv7_2_relu_0_split_4
I0621 00:22:38.694181 101073 net.cpp:141] Setting up conv7_2_conv7_2_relu_0_split
I0621 00:22:38.694188 101073 net.cpp:148] Top shape: 32 256 5 5 (204800)
I0621 00:22:38.694191 101073 net.cpp:148] Top shape: 32 256 5 5 (204800)
I0621 00:22:38.694195 101073 net.cpp:148] Top shape: 32 256 5 5 (204800)
I0621 00:22:38.694210 101073 net.cpp:148] Top shape: 32 256 5 5 (204800)
I0621 00:22:38.694212 101073 net.cpp:148] Top shape: 32 256 5 5 (204800)
I0621 00:22:38.694216 101073 net.cpp:156] Memory required for data: 7580614692
I0621 00:22:38.694218 101073 layer_factory.hpp:77] Creating layer conv8_1
I0621 00:22:38.694229 101073 net.cpp:91] Creating Layer conv8_1
I0621 00:22:38.694232 101073 net.cpp:425] conv8_1 <- conv7_2_conv7_2_relu_0_split_0
I0621 00:22:38.694239 101073 net.cpp:399] conv8_1 -> conv8_1
I0621 00:22:38.705065 101073 net.cpp:141] Setting up conv8_1
I0621 00:22:38.705078 101073 net.cpp:148] Top shape: 32 128 5 5 (102400)
I0621 00:22:38.705081 101073 net.cpp:156] Memory required for data: 7581024292
I0621 00:22:38.705088 101073 layer_factory.hpp:77] Creating layer conv8_1_relu
I0621 00:22:38.705096 101073 net.cpp:91] Creating Layer conv8_1_relu
I0621 00:22:38.705098 101073 net.cpp:425] conv8_1_relu <- conv8_1
I0621 00:22:38.705104 101073 net.cpp:386] conv8_1_relu -> conv8_1 (in-place)
I0621 00:22:38.706219 101073 net.cpp:141] Setting up conv8_1_relu
I0621 00:22:38.706229 101073 net.cpp:148] Top shape: 32 128 5 5 (102400)
I0621 00:22:38.706233 101073 net.cpp:156] Memory required for data: 7581433892
I0621 00:22:38.706236 101073 layer_factory.hpp:77] Creating layer conv8_2
I0621 00:22:38.706248 101073 net.cpp:91] Creating Layer conv8_2
I0621 00:22:38.706255 101073 net.cpp:425] conv8_2 <- conv8_1
I0621 00:22:38.706264 101073 net.cpp:399] conv8_2 -> conv8_2
I0621 00:22:38.718917 101073 net.cpp:141] Setting up conv8_2
I0621 00:22:38.718931 101073 net.cpp:148] Top shape: 32 256 3 3 (73728)
I0621 00:22:38.718935 101073 net.cpp:156] Memory required for data: 7581728804
I0621 00:22:38.718941 101073 layer_factory.hpp:77] Creating layer conv8_2_relu
I0621 00:22:38.718950 101073 net.cpp:91] Creating Layer conv8_2_relu
I0621 00:22:38.718952 101073 net.cpp:425] conv8_2_relu <- conv8_2
I0621 00:22:38.718957 101073 net.cpp:386] conv8_2_relu -> conv8_2 (in-place)
I0621 00:22:38.722875 101073 net.cpp:141] Setting up conv8_2_relu
I0621 00:22:38.722887 101073 net.cpp:148] Top shape: 32 256 3 3 (73728)
I0621 00:22:38.722890 101073 net.cpp:156] Memory required for data: 7582023716
I0621 00:22:38.722894 101073 layer_factory.hpp:77] Creating layer conv8_2_conv8_2_relu_0_split
I0621 00:22:38.722901 101073 net.cpp:91] Creating Layer conv8_2_conv8_2_relu_0_split
I0621 00:22:38.722904 101073 net.cpp:425] conv8_2_conv8_2_relu_0_split <- conv8_2
I0621 00:22:38.722911 101073 net.cpp:399] conv8_2_conv8_2_relu_0_split -> conv8_2_conv8_2_relu_0_split_0
I0621 00:22:38.722918 101073 net.cpp:399] conv8_2_conv8_2_relu_0_split -> conv8_2_conv8_2_relu_0_split_1
I0621 00:22:38.722925 101073 net.cpp:399] conv8_2_conv8_2_relu_0_split -> conv8_2_conv8_2_relu_0_split_2
I0621 00:22:38.722931 101073 net.cpp:399] conv8_2_conv8_2_relu_0_split -> conv8_2_conv8_2_relu_0_split_3
I0621 00:22:38.722936 101073 net.cpp:399] conv8_2_conv8_2_relu_0_split -> conv8_2_conv8_2_relu_0_split_4
I0621 00:22:38.723008 101073 net.cpp:141] Setting up conv8_2_conv8_2_relu_0_split
I0621 00:22:38.723016 101073 net.cpp:148] Top shape: 32 256 3 3 (73728)
I0621 00:22:38.723018 101073 net.cpp:148] Top shape: 32 256 3 3 (73728)
I0621 00:22:38.723021 101073 net.cpp:148] Top shape: 32 256 3 3 (73728)
I0621 00:22:38.723024 101073 net.cpp:148] Top shape: 32 256 3 3 (73728)
I0621 00:22:38.723027 101073 net.cpp:148] Top shape: 32 256 3 3 (73728)
I0621 00:22:38.723029 101073 net.cpp:156] Memory required for data: 7583498276
I0621 00:22:38.723032 101073 layer_factory.hpp:77] Creating layer pool6
I0621 00:22:38.723039 101073 net.cpp:91] Creating Layer pool6
I0621 00:22:38.723042 101073 net.cpp:425] pool6 <- conv8_2_conv8_2_relu_0_split_0
I0621 00:22:38.723049 101073 net.cpp:399] pool6 -> pool6
I0621 00:22:38.726950 101073 net.cpp:141] Setting up pool6
I0621 00:22:38.726961 101073 net.cpp:148] Top shape: 32 256 1 1 (8192)
I0621 00:22:38.726964 101073 net.cpp:156] Memory required for data: 7583531044
I0621 00:22:38.726968 101073 layer_factory.hpp:77] Creating layer pool6_pool6_0_split
I0621 00:22:38.726989 101073 net.cpp:91] Creating Layer pool6_pool6_0_split
I0621 00:22:38.726995 101073 net.cpp:425] pool6_pool6_0_split <- pool6
I0621 00:22:38.727002 101073 net.cpp:399] pool6_pool6_0_split -> pool6_pool6_0_split_0
I0621 00:22:38.727008 101073 net.cpp:399] pool6_pool6_0_split -> pool6_pool6_0_split_1
I0621 00:22:38.727017 101073 net.cpp:399] pool6_pool6_0_split -> pool6_pool6_0_split_2
I0621 00:22:38.727023 101073 net.cpp:399] pool6_pool6_0_split -> pool6_pool6_0_split_3
I0621 00:22:38.727087 101073 net.cpp:141] Setting up pool6_pool6_0_split
I0621 00:22:38.727092 101073 net.cpp:148] Top shape: 32 256 1 1 (8192)
I0621 00:22:38.727095 101073 net.cpp:148] Top shape: 32 256 1 1 (8192)
I0621 00:22:38.727098 101073 net.cpp:148] Top shape: 32 256 1 1 (8192)
I0621 00:22:38.727102 101073 net.cpp:148] Top shape: 32 256 1 1 (8192)
I0621 00:22:38.727104 101073 net.cpp:156] Memory required for data: 7583662116
I0621 00:22:38.727108 101073 layer_factory.hpp:77] Creating layer conv4_3_norm
I0621 00:22:38.727118 101073 net.cpp:91] Creating Layer conv4_3_norm
I0621 00:22:38.727125 101073 net.cpp:425] conv4_3_norm <- conv4_3_relu4_3_0_split_1
I0621 00:22:38.727131 101073 net.cpp:399] conv4_3_norm -> conv4_3_norm
I0621 00:22:38.727280 101073 net.cpp:141] Setting up conv4_3_norm
I0621 00:22:38.727288 101073 net.cpp:148] Top shape: 32 512 38 38 (23658496)
I0621 00:22:38.727290 101073 net.cpp:156] Memory required for data: 7678296100
I0621 00:22:38.727295 101073 layer_factory.hpp:77] Creating layer conv4_3_norm_conv4_3_norm_0_split
I0621 00:22:38.727301 101073 net.cpp:91] Creating Layer conv4_3_norm_conv4_3_norm_0_split
I0621 00:22:38.727304 101073 net.cpp:425] conv4_3_norm_conv4_3_norm_0_split <- conv4_3_norm
I0621 00:22:38.727309 101073 net.cpp:399] conv4_3_norm_conv4_3_norm_0_split -> conv4_3_norm_conv4_3_norm_0_split_0
I0621 00:22:38.727315 101073 net.cpp:399] conv4_3_norm_conv4_3_norm_0_split -> conv4_3_norm_conv4_3_norm_0_split_1
I0621 00:22:38.727329 101073 net.cpp:399] conv4_3_norm_conv4_3_norm_0_split -> conv4_3_norm_conv4_3_norm_0_split_2
I0621 00:22:38.727334 101073 net.cpp:399] conv4_3_norm_conv4_3_norm_0_split -> conv4_3_norm_conv4_3_norm_0_split_3
I0621 00:22:38.727388 101073 net.cpp:141] Setting up conv4_3_norm_conv4_3_norm_0_split
I0621 00:22:38.727394 101073 net.cpp:148] Top shape: 32 512 38 38 (23658496)
I0621 00:22:38.727399 101073 net.cpp:148] Top shape: 32 512 38 38 (23658496)
I0621 00:22:38.727402 101073 net.cpp:148] Top shape: 32 512 38 38 (23658496)
I0621 00:22:38.727406 101073 net.cpp:148] Top shape: 32 512 38 38 (23658496)
I0621 00:22:38.727407 101073 net.cpp:156] Memory required for data: 8056832036
I0621 00:22:38.727411 101073 layer_factory.hpp:77] Creating layer conv4_3_norm_mbox_loc
I0621 00:22:38.727421 101073 net.cpp:91] Creating Layer conv4_3_norm_mbox_loc
I0621 00:22:38.727424 101073 net.cpp:425] conv4_3_norm_mbox_loc <- conv4_3_norm_conv4_3_norm_0_split_0
I0621 00:22:38.727432 101073 net.cpp:399] conv4_3_norm_mbox_loc -> conv4_3_norm_mbox_loc
I0621 00:22:38.739151 101073 net.cpp:141] Setting up conv4_3_norm_mbox_loc
I0621 00:22:38.739163 101073 net.cpp:148] Top shape: 32 12 38 38 (554496)
I0621 00:22:38.739167 101073 net.cpp:156] Memory required for data: 8059050020
I0621 00:22:38.739174 101073 layer_factory.hpp:77] Creating layer conv4_3_norm_mbox_loc_perm
I0621 00:22:38.739187 101073 net.cpp:91] Creating Layer conv4_3_norm_mbox_loc_perm
I0621 00:22:38.739192 101073 net.cpp:425] conv4_3_norm_mbox_loc_perm <- conv4_3_norm_mbox_loc
I0621 00:22:38.739197 101073 net.cpp:399] conv4_3_norm_mbox_loc_perm -> conv4_3_norm_mbox_loc_perm
I0621 00:22:38.739302 101073 net.cpp:141] Setting up conv4_3_norm_mbox_loc_perm
I0621 00:22:38.739310 101073 net.cpp:148] Top shape: 32 38 38 12 (554496)
I0621 00:22:38.739311 101073 net.cpp:156] Memory required for data: 8061268004
I0621 00:22:38.739315 101073 layer_factory.hpp:77] Creating layer conv4_3_norm_mbox_loc_flat
I0621 00:22:38.739325 101073 net.cpp:91] Creating Layer conv4_3_norm_mbox_loc_flat
I0621 00:22:38.739331 101073 net.cpp:425] conv4_3_norm_mbox_loc_flat <- conv4_3_norm_mbox_loc_perm
I0621 00:22:38.739348 101073 net.cpp:399] conv4_3_norm_mbox_loc_flat -> conv4_3_norm_mbox_loc_flat
I0621 00:22:38.739382 101073 net.cpp:141] Setting up conv4_3_norm_mbox_loc_flat
I0621 00:22:38.739388 101073 net.cpp:148] Top shape: 32 17328 (554496)
I0621 00:22:38.739392 101073 net.cpp:156] Memory required for data: 8063485988
I0621 00:22:38.739394 101073 layer_factory.hpp:77] Creating layer conv4_3_norm_mbox_conf
I0621 00:22:38.739406 101073 net.cpp:91] Creating Layer conv4_3_norm_mbox_conf
I0621 00:22:38.739410 101073 net.cpp:425] conv4_3_norm_mbox_conf <- conv4_3_norm_conv4_3_norm_0_split_1
I0621 00:22:38.739418 101073 net.cpp:399] conv4_3_norm_mbox_conf -> conv4_3_norm_mbox_conf
I0621 00:22:38.751291 101073 net.cpp:141] Setting up conv4_3_norm_mbox_conf
I0621 00:22:38.751305 101073 net.cpp:148] Top shape: 32 36 38 38 (1663488)
I0621 00:22:38.751308 101073 net.cpp:156] Memory required for data: 8070139940
I0621 00:22:38.751314 101073 layer_factory.hpp:77] Creating layer conv4_3_norm_mbox_conf_perm
I0621 00:22:38.751323 101073 net.cpp:91] Creating Layer conv4_3_norm_mbox_conf_perm
I0621 00:22:38.751327 101073 net.cpp:425] conv4_3_norm_mbox_conf_perm <- conv4_3_norm_mbox_conf
I0621 00:22:38.751334 101073 net.cpp:399] conv4_3_norm_mbox_conf_perm -> conv4_3_norm_mbox_conf_perm
I0621 00:22:38.751431 101073 net.cpp:141] Setting up conv4_3_norm_mbox_conf_perm
I0621 00:22:38.751438 101073 net.cpp:148] Top shape: 32 38 38 36 (1663488)
I0621 00:22:38.751441 101073 net.cpp:156] Memory required for data: 8076793892
I0621 00:22:38.751443 101073 layer_factory.hpp:77] Creating layer conv4_3_norm_mbox_conf_flat
I0621 00:22:38.751451 101073 net.cpp:91] Creating Layer conv4_3_norm_mbox_conf_flat
I0621 00:22:38.751453 101073 net.cpp:425] conv4_3_norm_mbox_conf_flat <- conv4_3_norm_mbox_conf_perm
I0621 00:22:38.751459 101073 net.cpp:399] conv4_3_norm_mbox_conf_flat -> conv4_3_norm_mbox_conf_flat
I0621 00:22:38.751482 101073 net.cpp:141] Setting up conv4_3_norm_mbox_conf_flat
I0621 00:22:38.751489 101073 net.cpp:148] Top shape: 32 51984 (1663488)
I0621 00:22:38.751492 101073 net.cpp:156] Memory required for data: 8083447844
I0621 00:22:38.751494 101073 layer_factory.hpp:77] Creating layer conv4_3_norm_mbox_pose
I0621 00:22:38.751514 101073 net.cpp:91] Creating Layer conv4_3_norm_mbox_pose
I0621 00:22:38.751519 101073 net.cpp:425] conv4_3_norm_mbox_pose <- conv4_3_norm_conv4_3_norm_0_split_2
I0621 00:22:38.751526 101073 net.cpp:399] conv4_3_norm_mbox_pose -> conv4_3_norm_mbox_pose
I0621 00:22:38.763451 101073 net.cpp:141] Setting up conv4_3_norm_mbox_pose
I0621 00:22:38.763464 101073 net.cpp:148] Top shape: 32 24 38 38 (1108992)
I0621 00:22:38.763468 101073 net.cpp:156] Memory required for data: 8087883812
I0621 00:22:38.763474 101073 layer_factory.hpp:77] Creating layer conv4_3_norm_mbox_pose_perm
I0621 00:22:38.763484 101073 net.cpp:91] Creating Layer conv4_3_norm_mbox_pose_perm
I0621 00:22:38.763486 101073 net.cpp:425] conv4_3_norm_mbox_pose_perm <- conv4_3_norm_mbox_pose
I0621 00:22:38.763494 101073 net.cpp:399] conv4_3_norm_mbox_pose_perm -> conv4_3_norm_mbox_pose_perm
I0621 00:22:38.763594 101073 net.cpp:141] Setting up conv4_3_norm_mbox_pose_perm
I0621 00:22:38.763602 101073 net.cpp:148] Top shape: 32 38 38 24 (1108992)
I0621 00:22:38.763604 101073 net.cpp:156] Memory required for data: 8092319780
I0621 00:22:38.763607 101073 layer_factory.hpp:77] Creating layer conv4_3_norm_mbox_pose_flat
I0621 00:22:38.763614 101073 net.cpp:91] Creating Layer conv4_3_norm_mbox_pose_flat
I0621 00:22:38.763617 101073 net.cpp:425] conv4_3_norm_mbox_pose_flat <- conv4_3_norm_mbox_pose_perm
I0621 00:22:38.763624 101073 net.cpp:399] conv4_3_norm_mbox_pose_flat -> conv4_3_norm_mbox_pose_flat
I0621 00:22:38.763646 101073 net.cpp:141] Setting up conv4_3_norm_mbox_pose_flat
I0621 00:22:38.763653 101073 net.cpp:148] Top shape: 32 34656 (1108992)
I0621 00:22:38.763655 101073 net.cpp:156] Memory required for data: 8096755748
I0621 00:22:38.763658 101073 layer_factory.hpp:77] Creating layer conv4_3_norm_mbox_priorbox
I0621 00:22:38.763679 101073 net.cpp:91] Creating Layer conv4_3_norm_mbox_priorbox
I0621 00:22:38.763684 101073 net.cpp:425] conv4_3_norm_mbox_priorbox <- conv4_3_norm_conv4_3_norm_0_split_3
I0621 00:22:38.763689 101073 net.cpp:425] conv4_3_norm_mbox_priorbox <- data_data_0_split_1
I0621 00:22:38.763696 101073 net.cpp:399] conv4_3_norm_mbox_priorbox -> conv4_3_norm_mbox_priorbox
I0621 00:22:38.763730 101073 net.cpp:141] Setting up conv4_3_norm_mbox_priorbox
I0621 00:22:38.763737 101073 net.cpp:148] Top shape: 1 2 17328 (34656)
I0621 00:22:38.763739 101073 net.cpp:156] Memory required for data: 8096894372
I0621 00:22:38.763742 101073 layer_factory.hpp:77] Creating layer fc7_mbox_loc
I0621 00:22:38.763754 101073 net.cpp:91] Creating Layer fc7_mbox_loc
I0621 00:22:38.763758 101073 net.cpp:425] fc7_mbox_loc <- fc7_relu7_0_split_1
I0621 00:22:38.763767 101073 net.cpp:399] fc7_mbox_loc -> fc7_mbox_loc
I0621 00:22:38.775625 101073 net.cpp:141] Setting up fc7_mbox_loc
I0621 00:22:38.775638 101073 net.cpp:148] Top shape: 32 24 19 19 (277248)
I0621 00:22:38.775642 101073 net.cpp:156] Memory required for data: 8098003364
I0621 00:22:38.775648 101073 layer_factory.hpp:77] Creating layer fc7_mbox_loc_perm
I0621 00:22:38.775657 101073 net.cpp:91] Creating Layer fc7_mbox_loc_perm
I0621 00:22:38.775660 101073 net.cpp:425] fc7_mbox_loc_perm <- fc7_mbox_loc
I0621 00:22:38.775667 101073 net.cpp:399] fc7_mbox_loc_perm -> fc7_mbox_loc_perm
I0621 00:22:38.775766 101073 net.cpp:141] Setting up fc7_mbox_loc_perm
I0621 00:22:38.775774 101073 net.cpp:148] Top shape: 32 19 19 24 (277248)
I0621 00:22:38.775776 101073 net.cpp:156] Memory required for data: 8099112356
I0621 00:22:38.775779 101073 layer_factory.hpp:77] Creating layer fc7_mbox_loc_flat
I0621 00:22:38.775786 101073 net.cpp:91] Creating Layer fc7_mbox_loc_flat
I0621 00:22:38.775790 101073 net.cpp:425] fc7_mbox_loc_flat <- fc7_mbox_loc_perm
I0621 00:22:38.775796 101073 net.cpp:399] fc7_mbox_loc_flat -> fc7_mbox_loc_flat
I0621 00:22:38.775820 101073 net.cpp:141] Setting up fc7_mbox_loc_flat
I0621 00:22:38.775827 101073 net.cpp:148] Top shape: 32 8664 (277248)
I0621 00:22:38.775830 101073 net.cpp:156] Memory required for data: 8100221348
I0621 00:22:38.775832 101073 layer_factory.hpp:77] Creating layer fc7_mbox_conf
I0621 00:22:38.775843 101073 net.cpp:91] Creating Layer fc7_mbox_conf
I0621 00:22:38.775848 101073 net.cpp:425] fc7_mbox_conf <- fc7_relu7_0_split_2
I0621 00:22:38.775856 101073 net.cpp:399] fc7_mbox_conf -> fc7_mbox_conf
I0621 00:22:38.787832 101073 net.cpp:141] Setting up fc7_mbox_conf
I0621 00:22:38.787845 101073 net.cpp:148] Top shape: 32 72 19 19 (831744)
I0621 00:22:38.787849 101073 net.cpp:156] Memory required for data: 8103548324
I0621 00:22:38.787855 101073 layer_factory.hpp:77] Creating layer fc7_mbox_conf_perm
I0621 00:22:38.787864 101073 net.cpp:91] Creating Layer fc7_mbox_conf_perm
I0621 00:22:38.787868 101073 net.cpp:425] fc7_mbox_conf_perm <- fc7_mbox_conf
I0621 00:22:38.787874 101073 net.cpp:399] fc7_mbox_conf_perm -> fc7_mbox_conf_perm
I0621 00:22:38.787977 101073 net.cpp:141] Setting up fc7_mbox_conf_perm
I0621 00:22:38.787984 101073 net.cpp:148] Top shape: 32 19 19 72 (831744)
I0621 00:22:38.787986 101073 net.cpp:156] Memory required for data: 8106875300
I0621 00:22:38.787989 101073 layer_factory.hpp:77] Creating layer fc7_mbox_conf_flat
I0621 00:22:38.787997 101073 net.cpp:91] Creating Layer fc7_mbox_conf_flat
I0621 00:22:38.787999 101073 net.cpp:425] fc7_mbox_conf_flat <- fc7_mbox_conf_perm
I0621 00:22:38.788007 101073 net.cpp:399] fc7_mbox_conf_flat -> fc7_mbox_conf_flat
I0621 00:22:38.788029 101073 net.cpp:141] Setting up fc7_mbox_conf_flat
I0621 00:22:38.788036 101073 net.cpp:148] Top shape: 32 25992 (831744)
I0621 00:22:38.788038 101073 net.cpp:156] Memory required for data: 8110202276
I0621 00:22:38.788041 101073 layer_factory.hpp:77] Creating layer fc7_mbox_pose
I0621 00:22:38.788053 101073 net.cpp:91] Creating Layer fc7_mbox_pose
I0621 00:22:38.788058 101073 net.cpp:425] fc7_mbox_pose <- fc7_relu7_0_split_3
I0621 00:22:38.788065 101073 net.cpp:399] fc7_mbox_pose -> fc7_mbox_pose
I0621 00:22:38.799988 101073 net.cpp:141] Setting up fc7_mbox_pose
I0621 00:22:38.800003 101073 net.cpp:148] Top shape: 32 48 19 19 (554496)
I0621 00:22:38.800005 101073 net.cpp:156] Memory required for data: 8112420260
I0621 00:22:38.800012 101073 layer_factory.hpp:77] Creating layer fc7_mbox_pose_perm
I0621 00:22:38.800024 101073 net.cpp:91] Creating Layer fc7_mbox_pose_perm
I0621 00:22:38.800029 101073 net.cpp:425] fc7_mbox_pose_perm <- fc7_mbox_pose
I0621 00:22:38.800036 101073 net.cpp:399] fc7_mbox_pose_perm -> fc7_mbox_pose_perm
I0621 00:22:38.800135 101073 net.cpp:141] Setting up fc7_mbox_pose_perm
I0621 00:22:38.800143 101073 net.cpp:148] Top shape: 32 19 19 48 (554496)
I0621 00:22:38.800145 101073 net.cpp:156] Memory required for data: 8114638244
I0621 00:22:38.800149 101073 layer_factory.hpp:77] Creating layer fc7_mbox_pose_flat
I0621 00:22:38.800155 101073 net.cpp:91] Creating Layer fc7_mbox_pose_flat
I0621 00:22:38.800158 101073 net.cpp:425] fc7_mbox_pose_flat <- fc7_mbox_pose_perm
I0621 00:22:38.800165 101073 net.cpp:399] fc7_mbox_pose_flat -> fc7_mbox_pose_flat
I0621 00:22:38.800187 101073 net.cpp:141] Setting up fc7_mbox_pose_flat
I0621 00:22:38.800194 101073 net.cpp:148] Top shape: 32 17328 (554496)
I0621 00:22:38.800196 101073 net.cpp:156] Memory required for data: 8116856228
I0621 00:22:38.800199 101073 layer_factory.hpp:77] Creating layer fc7_mbox_priorbox
I0621 00:22:38.800206 101073 net.cpp:91] Creating Layer fc7_mbox_priorbox
I0621 00:22:38.800209 101073 net.cpp:425] fc7_mbox_priorbox <- fc7_relu7_0_split_4
I0621 00:22:38.800214 101073 net.cpp:425] fc7_mbox_priorbox <- data_data_0_split_2
I0621 00:22:38.800220 101073 net.cpp:399] fc7_mbox_priorbox -> fc7_mbox_priorbox
I0621 00:22:38.800245 101073 net.cpp:141] Setting up fc7_mbox_priorbox
I0621 00:22:38.800251 101073 net.cpp:148] Top shape: 1 2 8664 (17328)
I0621 00:22:38.800253 101073 net.cpp:156] Memory required for data: 8116925540
I0621 00:22:38.800256 101073 layer_factory.hpp:77] Creating layer conv6_2_mbox_loc
I0621 00:22:38.800268 101073 net.cpp:91] Creating Layer conv6_2_mbox_loc
I0621 00:22:38.800273 101073 net.cpp:425] conv6_2_mbox_loc <- conv6_2_conv6_2_relu_0_split_1
I0621 00:22:38.800281 101073 net.cpp:399] conv6_2_mbox_loc -> conv6_2_mbox_loc
I0621 00:22:38.812168 101073 net.cpp:141] Setting up conv6_2_mbox_loc
I0621 00:22:38.812182 101073 net.cpp:148] Top shape: 32 24 10 10 (76800)
I0621 00:22:38.812186 101073 net.cpp:156] Memory required for data: 8117232740
I0621 00:22:38.812191 101073 layer_factory.hpp:77] Creating layer conv6_2_mbox_loc_perm
I0621 00:22:38.812203 101073 net.cpp:91] Creating Layer conv6_2_mbox_loc_perm
I0621 00:22:38.812208 101073 net.cpp:425] conv6_2_mbox_loc_perm <- conv6_2_mbox_loc
I0621 00:22:38.812216 101073 net.cpp:399] conv6_2_mbox_loc_perm -> conv6_2_mbox_loc_perm
I0621 00:22:38.812314 101073 net.cpp:141] Setting up conv6_2_mbox_loc_perm
I0621 00:22:38.812321 101073 net.cpp:148] Top shape: 32 10 10 24 (76800)
I0621 00:22:38.812324 101073 net.cpp:156] Memory required for data: 8117539940
I0621 00:22:38.812326 101073 layer_factory.hpp:77] Creating layer conv6_2_mbox_loc_flat
I0621 00:22:38.812333 101073 net.cpp:91] Creating Layer conv6_2_mbox_loc_flat
I0621 00:22:38.812336 101073 net.cpp:425] conv6_2_mbox_loc_flat <- conv6_2_mbox_loc_perm
I0621 00:22:38.812342 101073 net.cpp:399] conv6_2_mbox_loc_flat -> conv6_2_mbox_loc_flat
I0621 00:22:38.812367 101073 net.cpp:141] Setting up conv6_2_mbox_loc_flat
I0621 00:22:38.812373 101073 net.cpp:148] Top shape: 32 2400 (76800)
I0621 00:22:38.812376 101073 net.cpp:156] Memory required for data: 8117847140
I0621 00:22:38.812379 101073 layer_factory.hpp:77] Creating layer conv6_2_mbox_conf
I0621 00:22:38.812389 101073 net.cpp:91] Creating Layer conv6_2_mbox_conf
I0621 00:22:38.812393 101073 net.cpp:425] conv6_2_mbox_conf <- conv6_2_conv6_2_relu_0_split_2
I0621 00:22:38.812400 101073 net.cpp:399] conv6_2_mbox_conf -> conv6_2_mbox_conf
I0621 00:22:38.824339 101073 net.cpp:141] Setting up conv6_2_mbox_conf
I0621 00:22:38.824353 101073 net.cpp:148] Top shape: 32 72 10 10 (230400)
I0621 00:22:38.824368 101073 net.cpp:156] Memory required for data: 8118768740
I0621 00:22:38.824376 101073 layer_factory.hpp:77] Creating layer conv6_2_mbox_conf_perm
I0621 00:22:38.824384 101073 net.cpp:91] Creating Layer conv6_2_mbox_conf_perm
I0621 00:22:38.824388 101073 net.cpp:425] conv6_2_mbox_conf_perm <- conv6_2_mbox_conf
I0621 00:22:38.824394 101073 net.cpp:399] conv6_2_mbox_conf_perm -> conv6_2_mbox_conf_perm
I0621 00:22:38.824496 101073 net.cpp:141] Setting up conv6_2_mbox_conf_perm
I0621 00:22:38.824503 101073 net.cpp:148] Top shape: 32 10 10 72 (230400)
I0621 00:22:38.824506 101073 net.cpp:156] Memory required for data: 8119690340
I0621 00:22:38.824509 101073 layer_factory.hpp:77] Creating layer conv6_2_mbox_conf_flat
I0621 00:22:38.824515 101073 net.cpp:91] Creating Layer conv6_2_mbox_conf_flat
I0621 00:22:38.824519 101073 net.cpp:425] conv6_2_mbox_conf_flat <- conv6_2_mbox_conf_perm
I0621 00:22:38.824525 101073 net.cpp:399] conv6_2_mbox_conf_flat -> conv6_2_mbox_conf_flat
I0621 00:22:38.824554 101073 net.cpp:141] Setting up conv6_2_mbox_conf_flat
I0621 00:22:38.824561 101073 net.cpp:148] Top shape: 32 7200 (230400)
I0621 00:22:38.824563 101073 net.cpp:156] Memory required for data: 8120611940
I0621 00:22:38.824566 101073 layer_factory.hpp:77] Creating layer conv6_2_mbox_pose
I0621 00:22:38.824579 101073 net.cpp:91] Creating Layer conv6_2_mbox_pose
I0621 00:22:38.824589 101073 net.cpp:425] conv6_2_mbox_pose <- conv6_2_conv6_2_relu_0_split_3
I0621 00:22:38.824597 101073 net.cpp:399] conv6_2_mbox_pose -> conv6_2_mbox_pose
I0621 00:22:38.829741 101073 net.cpp:141] Setting up conv6_2_mbox_pose
I0621 00:22:38.829756 101073 net.cpp:148] Top shape: 32 48 10 10 (153600)
I0621 00:22:38.829758 101073 net.cpp:156] Memory required for data: 8121226340
I0621 00:22:38.829764 101073 layer_factory.hpp:77] Creating layer conv6_2_mbox_pose_perm
I0621 00:22:38.829773 101073 net.cpp:91] Creating Layer conv6_2_mbox_pose_perm
I0621 00:22:38.829777 101073 net.cpp:425] conv6_2_mbox_pose_perm <- conv6_2_mbox_pose
I0621 00:22:38.829784 101073 net.cpp:399] conv6_2_mbox_pose_perm -> conv6_2_mbox_pose_perm
I0621 00:22:38.829890 101073 net.cpp:141] Setting up conv6_2_mbox_pose_perm
I0621 00:22:38.829898 101073 net.cpp:148] Top shape: 32 10 10 48 (153600)
I0621 00:22:38.829901 101073 net.cpp:156] Memory required for data: 8121840740
I0621 00:22:38.829905 101073 layer_factory.hpp:77] Creating layer conv6_2_mbox_pose_flat
I0621 00:22:38.829910 101073 net.cpp:91] Creating Layer conv6_2_mbox_pose_flat
I0621 00:22:38.829915 101073 net.cpp:425] conv6_2_mbox_pose_flat <- conv6_2_mbox_pose_perm
I0621 00:22:38.829921 101073 net.cpp:399] conv6_2_mbox_pose_flat -> conv6_2_mbox_pose_flat
I0621 00:22:38.829944 101073 net.cpp:141] Setting up conv6_2_mbox_pose_flat
I0621 00:22:38.829951 101073 net.cpp:148] Top shape: 32 4800 (153600)
I0621 00:22:38.829953 101073 net.cpp:156] Memory required for data: 8122455140
I0621 00:22:38.829955 101073 layer_factory.hpp:77] Creating layer conv6_2_mbox_priorbox
I0621 00:22:38.829963 101073 net.cpp:91] Creating Layer conv6_2_mbox_priorbox
I0621 00:22:38.829967 101073 net.cpp:425] conv6_2_mbox_priorbox <- conv6_2_conv6_2_relu_0_split_4
I0621 00:22:38.829972 101073 net.cpp:425] conv6_2_mbox_priorbox <- data_data_0_split_3
I0621 00:22:38.829977 101073 net.cpp:399] conv6_2_mbox_priorbox -> conv6_2_mbox_priorbox
I0621 00:22:38.830004 101073 net.cpp:141] Setting up conv6_2_mbox_priorbox
I0621 00:22:38.830013 101073 net.cpp:148] Top shape: 1 2 2400 (4800)
I0621 00:22:38.830014 101073 net.cpp:156] Memory required for data: 8122474340
I0621 00:22:38.830018 101073 layer_factory.hpp:77] Creating layer conv7_2_mbox_loc
I0621 00:22:38.830029 101073 net.cpp:91] Creating Layer conv7_2_mbox_loc
I0621 00:22:38.830034 101073 net.cpp:425] conv7_2_mbox_loc <- conv7_2_conv7_2_relu_0_split_1
I0621 00:22:38.830042 101073 net.cpp:399] conv7_2_mbox_loc -> conv7_2_mbox_loc
I0621 00:22:38.866901 101073 net.cpp:141] Setting up conv7_2_mbox_loc
I0621 00:22:38.866916 101073 net.cpp:148] Top shape: 32 24 5 5 (19200)
I0621 00:22:38.866935 101073 net.cpp:156] Memory required for data: 8122551140
I0621 00:22:38.866942 101073 layer_factory.hpp:77] Creating layer conv7_2_mbox_loc_perm
I0621 00:22:38.866951 101073 net.cpp:91] Creating Layer conv7_2_mbox_loc_perm
I0621 00:22:38.866955 101073 net.cpp:425] conv7_2_mbox_loc_perm <- conv7_2_mbox_loc
I0621 00:22:38.866961 101073 net.cpp:399] conv7_2_mbox_loc_perm -> conv7_2_mbox_loc_perm
I0621 00:22:38.867068 101073 net.cpp:141] Setting up conv7_2_mbox_loc_perm
I0621 00:22:38.867074 101073 net.cpp:148] Top shape: 32 5 5 24 (19200)
I0621 00:22:38.867077 101073 net.cpp:156] Memory required for data: 8122627940
I0621 00:22:38.867080 101073 layer_factory.hpp:77] Creating layer conv7_2_mbox_loc_flat
I0621 00:22:38.867087 101073 net.cpp:91] Creating Layer conv7_2_mbox_loc_flat
I0621 00:22:38.867090 101073 net.cpp:425] conv7_2_mbox_loc_flat <- conv7_2_mbox_loc_perm
I0621 00:22:38.867096 101073 net.cpp:399] conv7_2_mbox_loc_flat -> conv7_2_mbox_loc_flat
I0621 00:22:38.867122 101073 net.cpp:141] Setting up conv7_2_mbox_loc_flat
I0621 00:22:38.867128 101073 net.cpp:148] Top shape: 32 600 (19200)
I0621 00:22:38.867131 101073 net.cpp:156] Memory required for data: 8122704740
I0621 00:22:38.867135 101073 layer_factory.hpp:77] Creating layer conv7_2_mbox_conf
I0621 00:22:38.867146 101073 net.cpp:91] Creating Layer conv7_2_mbox_conf
I0621 00:22:38.867151 101073 net.cpp:425] conv7_2_mbox_conf <- conv7_2_conv7_2_relu_0_split_2
I0621 00:22:38.867157 101073 net.cpp:399] conv7_2_mbox_conf -> conv7_2_mbox_conf
I0621 00:22:38.870328 101073 net.cpp:141] Setting up conv7_2_mbox_conf
I0621 00:22:38.870342 101073 net.cpp:148] Top shape: 32 72 5 5 (57600)
I0621 00:22:38.870345 101073 net.cpp:156] Memory required for data: 8122935140
I0621 00:22:38.870367 101073 layer_factory.hpp:77] Creating layer conv7_2_mbox_conf_perm
I0621 00:22:38.870374 101073 net.cpp:91] Creating Layer conv7_2_mbox_conf_perm
I0621 00:22:38.870378 101073 net.cpp:425] conv7_2_mbox_conf_perm <- conv7_2_mbox_conf
I0621 00:22:38.870384 101073 net.cpp:399] conv7_2_mbox_conf_perm -> conv7_2_mbox_conf_perm
I0621 00:22:38.870488 101073 net.cpp:141] Setting up conv7_2_mbox_conf_perm
I0621 00:22:38.870496 101073 net.cpp:148] Top shape: 32 5 5 72 (57600)
I0621 00:22:38.870498 101073 net.cpp:156] Memory required for data: 8123165540
I0621 00:22:38.870501 101073 layer_factory.hpp:77] Creating layer conv7_2_mbox_conf_flat
I0621 00:22:38.870507 101073 net.cpp:91] Creating Layer conv7_2_mbox_conf_flat
I0621 00:22:38.870512 101073 net.cpp:425] conv7_2_mbox_conf_flat <- conv7_2_mbox_conf_perm
I0621 00:22:38.870517 101073 net.cpp:399] conv7_2_mbox_conf_flat -> conv7_2_mbox_conf_flat
I0621 00:22:38.870543 101073 net.cpp:141] Setting up conv7_2_mbox_conf_flat
I0621 00:22:38.870548 101073 net.cpp:148] Top shape: 32 1800 (57600)
I0621 00:22:38.870550 101073 net.cpp:156] Memory required for data: 8123395940
I0621 00:22:38.870553 101073 layer_factory.hpp:77] Creating layer conv7_2_mbox_pose
I0621 00:22:38.870563 101073 net.cpp:91] Creating Layer conv7_2_mbox_pose
I0621 00:22:38.870568 101073 net.cpp:425] conv7_2_mbox_pose <- conv7_2_conv7_2_relu_0_split_3
I0621 00:22:38.870574 101073 net.cpp:399] conv7_2_mbox_pose -> conv7_2_mbox_pose
I0621 00:22:38.873836 101073 net.cpp:141] Setting up conv7_2_mbox_pose
I0621 00:22:38.873849 101073 net.cpp:148] Top shape: 32 48 5 5 (38400)
I0621 00:22:38.873852 101073 net.cpp:156] Memory required for data: 8123549540
I0621 00:22:38.873859 101073 layer_factory.hpp:77] Creating layer conv7_2_mbox_pose_perm
I0621 00:22:38.873867 101073 net.cpp:91] Creating Layer conv7_2_mbox_pose_perm
I0621 00:22:38.873872 101073 net.cpp:425] conv7_2_mbox_pose_perm <- conv7_2_mbox_pose
I0621 00:22:38.873878 101073 net.cpp:399] conv7_2_mbox_pose_perm -> conv7_2_mbox_pose_perm
I0621 00:22:38.873983 101073 net.cpp:141] Setting up conv7_2_mbox_pose_perm
I0621 00:22:38.873991 101073 net.cpp:148] Top shape: 32 5 5 48 (38400)
I0621 00:22:38.873992 101073 net.cpp:156] Memory required for data: 8123703140
I0621 00:22:38.873996 101073 layer_factory.hpp:77] Creating layer conv7_2_mbox_pose_flat
I0621 00:22:38.874013 101073 net.cpp:91] Creating Layer conv7_2_mbox_pose_flat
I0621 00:22:38.874017 101073 net.cpp:425] conv7_2_mbox_pose_flat <- conv7_2_mbox_pose_perm
I0621 00:22:38.874023 101073 net.cpp:399] conv7_2_mbox_pose_flat -> conv7_2_mbox_pose_flat
I0621 00:22:38.874050 101073 net.cpp:141] Setting up conv7_2_mbox_pose_flat
I0621 00:22:38.874058 101073 net.cpp:148] Top shape: 32 1200 (38400)
I0621 00:22:38.874059 101073 net.cpp:156] Memory required for data: 8123856740
I0621 00:22:38.874063 101073 layer_factory.hpp:77] Creating layer conv7_2_mbox_priorbox
I0621 00:22:38.874070 101073 net.cpp:91] Creating Layer conv7_2_mbox_priorbox
I0621 00:22:38.874073 101073 net.cpp:425] conv7_2_mbox_priorbox <- conv7_2_conv7_2_relu_0_split_4
I0621 00:22:38.874078 101073 net.cpp:425] conv7_2_mbox_priorbox <- data_data_0_split_4
I0621 00:22:38.874083 101073 net.cpp:399] conv7_2_mbox_priorbox -> conv7_2_mbox_priorbox
I0621 00:22:38.874111 101073 net.cpp:141] Setting up conv7_2_mbox_priorbox
I0621 00:22:38.874117 101073 net.cpp:148] Top shape: 1 2 600 (1200)
I0621 00:22:38.874120 101073 net.cpp:156] Memory required for data: 8123861540
I0621 00:22:38.874124 101073 layer_factory.hpp:77] Creating layer conv8_2_mbox_loc
I0621 00:22:38.874135 101073 net.cpp:91] Creating Layer conv8_2_mbox_loc
I0621 00:22:38.874140 101073 net.cpp:425] conv8_2_mbox_loc <- conv8_2_conv8_2_relu_0_split_1
I0621 00:22:38.874148 101073 net.cpp:399] conv8_2_mbox_loc -> conv8_2_mbox_loc
I0621 00:22:38.877288 101073 net.cpp:141] Setting up conv8_2_mbox_loc
I0621 00:22:38.877301 101073 net.cpp:148] Top shape: 32 24 3 3 (6912)
I0621 00:22:38.877305 101073 net.cpp:156] Memory required for data: 8123889188
I0621 00:22:38.877311 101073 layer_factory.hpp:77] Creating layer conv8_2_mbox_loc_perm
I0621 00:22:38.877318 101073 net.cpp:91] Creating Layer conv8_2_mbox_loc_perm
I0621 00:22:38.877322 101073 net.cpp:425] conv8_2_mbox_loc_perm <- conv8_2_mbox_loc
I0621 00:22:38.877328 101073 net.cpp:399] conv8_2_mbox_loc_perm -> conv8_2_mbox_loc_perm
I0621 00:22:38.877435 101073 net.cpp:141] Setting up conv8_2_mbox_loc_perm
I0621 00:22:38.877442 101073 net.cpp:148] Top shape: 32 3 3 24 (6912)
I0621 00:22:38.877445 101073 net.cpp:156] Memory required for data: 8123916836
I0621 00:22:38.877449 101073 layer_factory.hpp:77] Creating layer conv8_2_mbox_loc_flat
I0621 00:22:38.877454 101073 net.cpp:91] Creating Layer conv8_2_mbox_loc_flat
I0621 00:22:38.877456 101073 net.cpp:425] conv8_2_mbox_loc_flat <- conv8_2_mbox_loc_perm
I0621 00:22:38.877461 101073 net.cpp:399] conv8_2_mbox_loc_flat -> conv8_2_mbox_loc_flat
I0621 00:22:38.877485 101073 net.cpp:141] Setting up conv8_2_mbox_loc_flat
I0621 00:22:38.877491 101073 net.cpp:148] Top shape: 32 216 (6912)
I0621 00:22:38.877495 101073 net.cpp:156] Memory required for data: 8123944484
I0621 00:22:38.877496 101073 layer_factory.hpp:77] Creating layer conv8_2_mbox_conf
I0621 00:22:38.877507 101073 net.cpp:91] Creating Layer conv8_2_mbox_conf
I0621 00:22:38.877511 101073 net.cpp:425] conv8_2_mbox_conf <- conv8_2_conv8_2_relu_0_split_2
I0621 00:22:38.877517 101073 net.cpp:399] conv8_2_mbox_conf -> conv8_2_mbox_conf
I0621 00:22:38.881042 101073 net.cpp:141] Setting up conv8_2_mbox_conf
I0621 00:22:38.881057 101073 net.cpp:148] Top shape: 32 72 3 3 (20736)
I0621 00:22:38.881060 101073 net.cpp:156] Memory required for data: 8124027428
I0621 00:22:38.881067 101073 layer_factory.hpp:77] Creating layer conv8_2_mbox_conf_perm
I0621 00:22:38.881074 101073 net.cpp:91] Creating Layer conv8_2_mbox_conf_perm
I0621 00:22:38.881078 101073 net.cpp:425] conv8_2_mbox_conf_perm <- conv8_2_mbox_conf
I0621 00:22:38.881084 101073 net.cpp:399] conv8_2_mbox_conf_perm -> conv8_2_mbox_conf_perm
I0621 00:22:38.881191 101073 net.cpp:141] Setting up conv8_2_mbox_conf_perm
I0621 00:22:38.881198 101073 net.cpp:148] Top shape: 32 3 3 72 (20736)
I0621 00:22:38.881201 101073 net.cpp:156] Memory required for data: 8124110372
I0621 00:22:38.881203 101073 layer_factory.hpp:77] Creating layer conv8_2_mbox_conf_flat
I0621 00:22:38.881209 101073 net.cpp:91] Creating Layer conv8_2_mbox_conf_flat
I0621 00:22:38.881222 101073 net.cpp:425] conv8_2_mbox_conf_flat <- conv8_2_mbox_conf_perm
I0621 00:22:38.881229 101073 net.cpp:399] conv8_2_mbox_conf_flat -> conv8_2_mbox_conf_flat
I0621 00:22:38.881258 101073 net.cpp:141] Setting up conv8_2_mbox_conf_flat
I0621 00:22:38.881264 101073 net.cpp:148] Top shape: 32 648 (20736)
I0621 00:22:38.881268 101073 net.cpp:156] Memory required for data: 8124193316
I0621 00:22:38.881270 101073 layer_factory.hpp:77] Creating layer conv8_2_mbox_pose
I0621 00:22:38.881281 101073 net.cpp:91] Creating Layer conv8_2_mbox_pose
I0621 00:22:38.881289 101073 net.cpp:425] conv8_2_mbox_pose <- conv8_2_conv8_2_relu_0_split_3
I0621 00:22:38.881296 101073 net.cpp:399] conv8_2_mbox_pose -> conv8_2_mbox_pose
I0621 00:22:38.886173 101073 net.cpp:141] Setting up conv8_2_mbox_pose
I0621 00:22:38.886186 101073 net.cpp:148] Top shape: 32 48 3 3 (13824)
I0621 00:22:38.886189 101073 net.cpp:156] Memory required for data: 8124248612
I0621 00:22:38.886196 101073 layer_factory.hpp:77] Creating layer conv8_2_mbox_pose_perm
I0621 00:22:38.886204 101073 net.cpp:91] Creating Layer conv8_2_mbox_pose_perm
I0621 00:22:38.886209 101073 net.cpp:425] conv8_2_mbox_pose_perm <- conv8_2_mbox_pose
I0621 00:22:38.886214 101073 net.cpp:399] conv8_2_mbox_pose_perm -> conv8_2_mbox_pose_perm
I0621 00:22:38.886323 101073 net.cpp:141] Setting up conv8_2_mbox_pose_perm
I0621 00:22:38.886330 101073 net.cpp:148] Top shape: 32 3 3 48 (13824)
I0621 00:22:38.886333 101073 net.cpp:156] Memory required for data: 8124303908
I0621 00:22:38.886337 101073 layer_factory.hpp:77] Creating layer conv8_2_mbox_pose_flat
I0621 00:22:38.886343 101073 net.cpp:91] Creating Layer conv8_2_mbox_pose_flat
I0621 00:22:38.886346 101073 net.cpp:425] conv8_2_mbox_pose_flat <- conv8_2_mbox_pose_perm
I0621 00:22:38.886353 101073 net.cpp:399] conv8_2_mbox_pose_flat -> conv8_2_mbox_pose_flat
I0621 00:22:38.886379 101073 net.cpp:141] Setting up conv8_2_mbox_pose_flat
I0621 00:22:38.886389 101073 net.cpp:148] Top shape: 32 432 (13824)
I0621 00:22:38.886392 101073 net.cpp:156] Memory required for data: 8124359204
I0621 00:22:38.886395 101073 layer_factory.hpp:77] Creating layer conv8_2_mbox_priorbox
I0621 00:22:38.886402 101073 net.cpp:91] Creating Layer conv8_2_mbox_priorbox
I0621 00:22:38.886405 101073 net.cpp:425] conv8_2_mbox_priorbox <- conv8_2_conv8_2_relu_0_split_4
I0621 00:22:38.886410 101073 net.cpp:425] conv8_2_mbox_priorbox <- data_data_0_split_5
I0621 00:22:38.886416 101073 net.cpp:399] conv8_2_mbox_priorbox -> conv8_2_mbox_priorbox
I0621 00:22:38.886443 101073 net.cpp:141] Setting up conv8_2_mbox_priorbox
I0621 00:22:38.886451 101073 net.cpp:148] Top shape: 1 2 216 (432)
I0621 00:22:38.886454 101073 net.cpp:156] Memory required for data: 8124360932
I0621 00:22:38.886456 101073 layer_factory.hpp:77] Creating layer pool6_mbox_loc
I0621 00:22:38.886467 101073 net.cpp:91] Creating Layer pool6_mbox_loc
I0621 00:22:38.886474 101073 net.cpp:425] pool6_mbox_loc <- pool6_pool6_0_split_0
I0621 00:22:38.886482 101073 net.cpp:399] pool6_mbox_loc -> pool6_mbox_loc
I0621 00:22:38.898164 101073 net.cpp:141] Setting up pool6_mbox_loc
I0621 00:22:38.898176 101073 net.cpp:148] Top shape: 32 24 1 1 (768)
I0621 00:22:38.898180 101073 net.cpp:156] Memory required for data: 8124364004
I0621 00:22:38.898186 101073 layer_factory.hpp:77] Creating layer pool6_mbox_loc_perm
I0621 00:22:38.898195 101073 net.cpp:91] Creating Layer pool6_mbox_loc_perm
I0621 00:22:38.898198 101073 net.cpp:425] pool6_mbox_loc_perm <- pool6_mbox_loc
I0621 00:22:38.898205 101073 net.cpp:399] pool6_mbox_loc_perm -> pool6_mbox_loc_perm
I0621 00:22:38.898311 101073 net.cpp:141] Setting up pool6_mbox_loc_perm
I0621 00:22:38.898319 101073 net.cpp:148] Top shape: 32 1 1 24 (768)
I0621 00:22:38.898321 101073 net.cpp:156] Memory required for data: 8124367076
I0621 00:22:38.898324 101073 layer_factory.hpp:77] Creating layer pool6_mbox_loc_flat
I0621 00:22:38.898330 101073 net.cpp:91] Creating Layer pool6_mbox_loc_flat
I0621 00:22:38.898334 101073 net.cpp:425] pool6_mbox_loc_flat <- pool6_mbox_loc_perm
I0621 00:22:38.898350 101073 net.cpp:399] pool6_mbox_loc_flat -> pool6_mbox_loc_flat
I0621 00:22:38.898380 101073 net.cpp:141] Setting up pool6_mbox_loc_flat
I0621 00:22:38.898386 101073 net.cpp:148] Top shape: 32 24 (768)
I0621 00:22:38.898389 101073 net.cpp:156] Memory required for data: 8124370148
I0621 00:22:38.898392 101073 layer_factory.hpp:77] Creating layer pool6_mbox_conf
I0621 00:22:38.898403 101073 net.cpp:91] Creating Layer pool6_mbox_conf
I0621 00:22:38.898407 101073 net.cpp:425] pool6_mbox_conf <- pool6_pool6_0_split_1
I0621 00:22:38.898414 101073 net.cpp:399] pool6_mbox_conf -> pool6_mbox_conf
I0621 00:22:38.902215 101073 net.cpp:141] Setting up pool6_mbox_conf
I0621 00:22:38.902230 101073 net.cpp:148] Top shape: 32 72 1 1 (2304)
I0621 00:22:38.902232 101073 net.cpp:156] Memory required for data: 8124379364
I0621 00:22:38.902240 101073 layer_factory.hpp:77] Creating layer pool6_mbox_conf_perm
I0621 00:22:38.902247 101073 net.cpp:91] Creating Layer pool6_mbox_conf_perm
I0621 00:22:38.902251 101073 net.cpp:425] pool6_mbox_conf_perm <- pool6_mbox_conf
I0621 00:22:38.902258 101073 net.cpp:399] pool6_mbox_conf_perm -> pool6_mbox_conf_perm
I0621 00:22:38.902369 101073 net.cpp:141] Setting up pool6_mbox_conf_perm
I0621 00:22:38.902375 101073 net.cpp:148] Top shape: 32 1 1 72 (2304)
I0621 00:22:38.902379 101073 net.cpp:156] Memory required for data: 8124388580
I0621 00:22:38.902380 101073 layer_factory.hpp:77] Creating layer pool6_mbox_conf_flat
I0621 00:22:38.902387 101073 net.cpp:91] Creating Layer pool6_mbox_conf_flat
I0621 00:22:38.902391 101073 net.cpp:425] pool6_mbox_conf_flat <- pool6_mbox_conf_perm
I0621 00:22:38.902397 101073 net.cpp:399] pool6_mbox_conf_flat -> pool6_mbox_conf_flat
I0621 00:22:38.902422 101073 net.cpp:141] Setting up pool6_mbox_conf_flat
I0621 00:22:38.902428 101073 net.cpp:148] Top shape: 32 72 (2304)
I0621 00:22:38.902431 101073 net.cpp:156] Memory required for data: 8124397796
I0621 00:22:38.902433 101073 layer_factory.hpp:77] Creating layer pool6_mbox_pose
I0621 00:22:38.902446 101073 net.cpp:91] Creating Layer pool6_mbox_pose
I0621 00:22:38.902454 101073 net.cpp:425] pool6_mbox_pose <- pool6_pool6_0_split_2
I0621 00:22:38.902462 101073 net.cpp:399] pool6_mbox_pose -> pool6_mbox_pose
I0621 00:22:38.908819 101073 net.cpp:141] Setting up pool6_mbox_pose
I0621 00:22:38.908833 101073 net.cpp:148] Top shape: 32 48 1 1 (1536)
I0621 00:22:38.908836 101073 net.cpp:156] Memory required for data: 8124403940
I0621 00:22:38.908843 101073 layer_factory.hpp:77] Creating layer pool6_mbox_pose_perm
I0621 00:22:38.908851 101073 net.cpp:91] Creating Layer pool6_mbox_pose_perm
I0621 00:22:38.908855 101073 net.cpp:425] pool6_mbox_pose_perm <- pool6_mbox_pose
I0621 00:22:38.908861 101073 net.cpp:399] pool6_mbox_pose_perm -> pool6_mbox_pose_perm
I0621 00:22:38.908967 101073 net.cpp:141] Setting up pool6_mbox_pose_perm
I0621 00:22:38.908974 101073 net.cpp:148] Top shape: 32 1 1 48 (1536)
I0621 00:22:38.908977 101073 net.cpp:156] Memory required for data: 8124410084
I0621 00:22:38.908979 101073 layer_factory.hpp:77] Creating layer pool6_mbox_pose_flat
I0621 00:22:38.908985 101073 net.cpp:91] Creating Layer pool6_mbox_pose_flat
I0621 00:22:38.908988 101073 net.cpp:425] pool6_mbox_pose_flat <- pool6_mbox_pose_perm
I0621 00:22:38.908994 101073 net.cpp:399] pool6_mbox_pose_flat -> pool6_mbox_pose_flat
I0621 00:22:38.909019 101073 net.cpp:141] Setting up pool6_mbox_pose_flat
I0621 00:22:38.909025 101073 net.cpp:148] Top shape: 32 48 (1536)
I0621 00:22:38.909027 101073 net.cpp:156] Memory required for data: 8124416228
I0621 00:22:38.909030 101073 layer_factory.hpp:77] Creating layer pool6_mbox_priorbox
I0621 00:22:38.909037 101073 net.cpp:91] Creating Layer pool6_mbox_priorbox
I0621 00:22:38.909040 101073 net.cpp:425] pool6_mbox_priorbox <- pool6_pool6_0_split_3
I0621 00:22:38.909044 101073 net.cpp:425] pool6_mbox_priorbox <- data_data_0_split_6
I0621 00:22:38.909049 101073 net.cpp:399] pool6_mbox_priorbox -> pool6_mbox_priorbox
I0621 00:22:38.909077 101073 net.cpp:141] Setting up pool6_mbox_priorbox
I0621 00:22:38.909096 101073 net.cpp:148] Top shape: 1 2 24 (48)
I0621 00:22:38.909097 101073 net.cpp:156] Memory required for data: 8124416420
I0621 00:22:38.909101 101073 layer_factory.hpp:77] Creating layer mbox_loc
I0621 00:22:38.909111 101073 net.cpp:91] Creating Layer mbox_loc
I0621 00:22:38.909116 101073 net.cpp:425] mbox_loc <- conv4_3_norm_mbox_loc_flat
I0621 00:22:38.909121 101073 net.cpp:425] mbox_loc <- fc7_mbox_loc_flat
I0621 00:22:38.909126 101073 net.cpp:425] mbox_loc <- conv6_2_mbox_loc_flat
I0621 00:22:38.909128 101073 net.cpp:425] mbox_loc <- conv7_2_mbox_loc_flat
I0621 00:22:38.909132 101073 net.cpp:425] mbox_loc <- conv8_2_mbox_loc_flat
I0621 00:22:38.909135 101073 net.cpp:425] mbox_loc <- pool6_mbox_loc_flat
I0621 00:22:38.909140 101073 net.cpp:399] mbox_loc -> mbox_loc
I0621 00:22:38.909178 101073 net.cpp:141] Setting up mbox_loc
I0621 00:22:38.909184 101073 net.cpp:148] Top shape: 32 29232 (935424)
I0621 00:22:38.909188 101073 net.cpp:156] Memory required for data: 8128158116
I0621 00:22:38.909190 101073 layer_factory.hpp:77] Creating layer mbox_conf
I0621 00:22:38.909198 101073 net.cpp:91] Creating Layer mbox_conf
I0621 00:22:38.909200 101073 net.cpp:425] mbox_conf <- conv4_3_norm_mbox_conf_flat
I0621 00:22:38.909204 101073 net.cpp:425] mbox_conf <- fc7_mbox_conf_flat
I0621 00:22:38.909209 101073 net.cpp:425] mbox_conf <- conv6_2_mbox_conf_flat
I0621 00:22:38.909211 101073 net.cpp:425] mbox_conf <- conv7_2_mbox_conf_flat
I0621 00:22:38.909215 101073 net.cpp:425] mbox_conf <- conv8_2_mbox_conf_flat
I0621 00:22:38.909219 101073 net.cpp:425] mbox_conf <- pool6_mbox_conf_flat
I0621 00:22:38.909224 101073 net.cpp:399] mbox_conf -> mbox_conf
I0621 00:22:38.909266 101073 net.cpp:141] Setting up mbox_conf
I0621 00:22:38.909274 101073 net.cpp:148] Top shape: 32 87696 (2806272)
I0621 00:22:38.909277 101073 net.cpp:156] Memory required for data: 8139383204
I0621 00:22:38.909281 101073 layer_factory.hpp:77] Creating layer mbox_pose
I0621 00:22:38.909286 101073 net.cpp:91] Creating Layer mbox_pose
I0621 00:22:38.909291 101073 net.cpp:425] mbox_pose <- conv4_3_norm_mbox_pose_flat
I0621 00:22:38.909296 101073 net.cpp:425] mbox_pose <- fc7_mbox_pose_flat
I0621 00:22:38.909299 101073 net.cpp:425] mbox_pose <- conv6_2_mbox_pose_flat
I0621 00:22:38.909302 101073 net.cpp:425] mbox_pose <- conv7_2_mbox_pose_flat
I0621 00:22:38.909307 101073 net.cpp:425] mbox_pose <- conv8_2_mbox_pose_flat
I0621 00:22:38.909309 101073 net.cpp:425] mbox_pose <- pool6_mbox_pose_flat
I0621 00:22:38.909314 101073 net.cpp:399] mbox_pose -> mbox_pose
I0621 00:22:38.909340 101073 net.cpp:141] Setting up mbox_pose
I0621 00:22:38.909345 101073 net.cpp:148] Top shape: 32 58464 (1870848)
I0621 00:22:38.909348 101073 net.cpp:156] Memory required for data: 8146866596
I0621 00:22:38.909350 101073 layer_factory.hpp:77] Creating layer mbox_priorbox
I0621 00:22:38.909358 101073 net.cpp:91] Creating Layer mbox_priorbox
I0621 00:22:38.909361 101073 net.cpp:425] mbox_priorbox <- conv4_3_norm_mbox_priorbox
I0621 00:22:38.909365 101073 net.cpp:425] mbox_priorbox <- fc7_mbox_priorbox
I0621 00:22:38.909368 101073 net.cpp:425] mbox_priorbox <- conv6_2_mbox_priorbox
I0621 00:22:38.909373 101073 net.cpp:425] mbox_priorbox <- conv7_2_mbox_priorbox
I0621 00:22:38.909375 101073 net.cpp:425] mbox_priorbox <- conv8_2_mbox_priorbox
I0621 00:22:38.909379 101073 net.cpp:425] mbox_priorbox <- pool6_mbox_priorbox
I0621 00:22:38.909384 101073 net.cpp:399] mbox_priorbox -> mbox_priorbox
I0621 00:22:38.909409 101073 net.cpp:141] Setting up mbox_priorbox
I0621 00:22:38.909415 101073 net.cpp:148] Top shape: 1 2 29232 (58464)
I0621 00:22:38.909417 101073 net.cpp:156] Memory required for data: 8147100452
I0621 00:22:38.909420 101073 layer_factory.hpp:77] Creating layer mbox_loss
I0621 00:22:38.909433 101073 net.cpp:91] Creating Layer mbox_loss
I0621 00:22:38.909437 101073 net.cpp:425] mbox_loss <- mbox_loc
I0621 00:22:38.909441 101073 net.cpp:425] mbox_loss <- mbox_conf
I0621 00:22:38.909445 101073 net.cpp:425] mbox_loss <- mbox_pose
…
layer {
  name: "data"
  type: "AnnotatedData"
  top: "data"
  top: "label"
  include {
    phase: TEST
  }
  transform_param {
    mean_value: 104
    mean_value: 117
    mean_value: 123
    resize_param {
      prob: 1
      resize_mode: WARP
      height: 300
      width: 300
      interp_mode: LINEAR
    }
  }
  data_param {
    source: "data/3Dpascal/pascal3D/lmdb/val_lmdb_bins_8_300"
    batch_size: 1
    backend: LMDB
  }
  annotated_data_param {
    batch_sampler {
    }
    label_map_file: "data/3Dpascal/pascal3D//labelmap_3D.prototxt"
  }
}
layer {
  name: "conv1_1"
  type: "Convolution"
  bottom: "data"
  top: "conv1_1"
  param {
    lr_mult: 0
    decay_mult: 0
  }
  param {
    lr_mult: 0
    decay_mult: 0
  }
  convolution_param {
    num_output: 64
    pad: 1
    kernel_size: 3
    weight_filler {
      type: "xavier"
    }
    bias_filler {
      type: "constant"
      value: 0
    }
  }
}
layer {
  name: "relu1_1"
  type: "ReLU"
  bottom: "conv1_1"
  top: "conv1_1"
}
layer {
  name: "conv1_2"
  type: "Convolution"
  bottom: "conv1_1"
  top: "conv1_2"
  param {
    lr_mult: 0
    decay_mult: 0
  }
  param {
    lr_mult: 0
    decay_mult: 0
  }
  convolution_param {
    num_output: 64
    pad: 1
    kernel_size: 3
    weight_filler {
      type: "xavier"
    }
    bias_filler {
      type: "constant"
      value: 0
    }
  }
}
layer {
  name: "relu1_2"
  type: "ReLU"
  bottom: "conv1_2"
  top: "conv1_2"
}
layer {
  name: "pool1"
  type: "Pooling"
  bottom: "conv1_2"
  top: "pool1"
  pooling_param {
    pool: MAX
    kernel_size: 2
    stride: 2
  }
}
layer {
  name: "conv2_1"
  type: "Convolution"
  bottom: "pool1"
  top: "conv2_1"
  param {
    lr_mult: 0
    decay_mult: 0
  }
  param {
    lr_mult: 0
    decay_mult: 0
  }
  convolution_param {
    num_output: 128
    pad: 1
    kernel_size: 3
    weight_filler {
      type: "xavier"
    }
    bias_filler {
      type: "constant"
      value: 0
    }
  }
}
layer {
  name: "relu2_1"
  type: "ReLU"
  bottom: "conv2_1"
  top: "conv2_1"
}
layer {
  name: "conv2_2"
  type: "Convolution"
  bottom: "conv2_1"
  top: "conv2_2"
  param {
    lr_mult: 0
    decay_mult: 0
  }
  param {
    lr_mult: 0
    decay_mult: 0
  }
  convolution_param {
    num_output: 128
    pad: 1
    kernel_size: 3
    weight_filler {
      type: "xavier"
    }
    bias_filler {
      type: "constant"
      value: 0
    }
  }
}
layer {
  name: "relu2_2"
  type: "ReLU"
  bottom: "conv2_2"
  top: "conv2_2"
}
layer {
  name: "pool2"
  type: "Pooling"
  bottom: "conv2_2"
  top: "pool2"
  pooling_param {
    pool: MAX
    kernel_size: 2
    stride: 2
  }
}
layer {
  name: "conv3_1"
  type: "Convolution"
  bottom: "pool2"
  top: "conv3_1"
  param {
    lr_mult: 1
    decay_mult: 1
  }
  param {
    lr_mult: 2
    decay_mult: 0
  }
  convolution_param {
    num_output: 256
    pad: 1
    kernel_size: 3
    weight_filler {
      type: "xavier"
    }
    bias_filler {
      type: "constant"
      value: 0
    }
  }
}
layer {
  name: "relu3_1"
  type: "ReLU"
  bottom: "conv3_1"
  top: "conv3_1"
}
layer {
  name: "conv3_2"
  type: "Convolution"
  bottom: "conv3_1"
  top: "conv3_2"
  param {
    lr_mult: 1
    decay_mult: 1
  }
  param {
    lr_mult: 2
    decay_mult: 0
  }
  convolution_param {
    num_output: 256
    pad: 1
    kernel_size: 3
    weight_filler {
      type: "xavier"
    }
    bias_filler {
      type: "constant"
      value: 0
    }
  }
}
layer {
  name: "relu3_2"
  type: "ReLU"
  bottom: "conv3_2"
  top: "conv3_2"
}
layer {
  name: "conv3_3"
  type: "Convolution"
  bottom: "conv3_2"
  top: "conv3_3"
  param {
    lr_mult: 1
    decay_mult: 1
  }
  param {
    lr_mult: 2
    decay_mult: 0
  }
  convolution_param {
    num_output: 256
    pad: 1
    kernel_size: 3
    weight_filler {
      type: "xavier"
    }
    bias_filler {
      type: "constant"
      value: 0
    }
  }
}
layer {
  name: "relu3_3"
  type: "ReLU"
  bottom: "conv3_3"
  top: "conv3_3"
}
layer {
  name: "pool3"
  type: "Pooling"
  bottom: "conv3_3"
  top: "pool3"
  pooling_param {
    pool: MAX
    kernel_size: 2
    stride: 2
  }
}
layer {
  name: "conv4_1"
  type: "Convolution"
  bottom: "pool3"
  top: "conv4_1"
  param {
    lr_mult: 1
    decay_mult: 1
  }
  param {
    lr_mult: 2
    decay_mult: 0
  }
  convolution_param {
    num_output: 512
    pad: 1
    kernel_size: 3
    weight_filler {
      type: "xavier"
    }
    bias_filler {
      type: "constant"
      value: 0
    }
  }
}
layer {
  name: "relu4_1"
  type: "ReLU"
  bottom: "conv4_1"
  top: "conv4_1"
}
layer {
  name: "conv4_2"
  type: "Convolution"
  bottom: "conv4_1"
  top: "conv4_2"
  param {
    lr_mult: 1
    decay_mult: 1
  }
  param {
    lr_mult: 2
    decay_mult: 0
  }
  convolution_param {
    num_output: 512
    pad: 1
    kernel_size: 3
    weight_filler {
      type: "xavier"
    }
    bias_filler {
      type: "constant"
      value: 0
    }
  }
}
layer {
  name: "relu4_2"
  type: "ReLU"
  bottom: "conv4_2"
  top: "conv4_2"
}
layer {
  name: "conv4_3"
  type: "Convolution"
  bottom: "conv4_2"
  top: "conv4_3"
  param {
    lr_mult: 1
    decay_mult: 1
  }
  param {
    lr_mult: 2
    decay_mult: 0
  }
  convolution_param {
    num_output: 512
    pad: 1
    kernel_size: 3
    weight_filler {
      type: "xavier"
    }
    bias_filler {
      type: "constant"
      value: 0
    }
  }
}
layer {
  name: "relu4_3"
  type: "ReLU"
  bottom: "conv4_3"
  top: "conv4_3"
}
layer {
  name: "pool4"
  type: "Pooling"
  bottom: "conv4_3"
  top: "pool4"
  pooling_param {
    pool: MAX
    kernel_size: 2
    stride: 2
  }
}
layer {
  name: "conv5_1"
  type: "Convolution"
  bottom: "pool4"
  top: "conv5_1"
  param {
    lr_mult: 1
    decay_mult: 1
  }
  param {
    lr_mult: 2
    decay_mult: 0
  }
  convolution_param {
    num_output: 512
    pad: 1
    kernel_size: 3
    weight_filler {
      type: "xavier"
    }
    bias_filler {
      type: "constant"
      value: 0
    }
  }
}
layer {
  name: "relu5_1"
  type: "ReLU"
  bottom: "conv5_1"
  top: "conv5_1"
}
layer {
  name: "conv5_2"
  type: "Convolution"
  bottom: "conv5_1"
  top: "conv5_2"
  param {
    lr_mult: 1
    decay_mult: 1
  }
  param {
    lr_mult: 2
    decay_mult: 0
  }
  convolution_param {
    num_output: 512
    pad: 1
    kernel_size: 3
    weight_filler {
      type: "xavier"
    }
    bias_filler {
      type: "constant"
      value: 0
    }
  }
}
layer {
  name: "relu5_2"
  type: "ReLU"
  bottom: "conv5_2"
  top: "conv5_2"
}
layer {
  name: "conv5_3"
  type: "Convolution"
  bottom: "conv5_2"
  top: "conv5_3"
  param {
    lr_mult: 1
    decay_mult: 1
  }
  param {
    lr_mult: 2
    decay_mult: 0
  }
  convolution_param {
    num_output: 512
    pad: 1
    kernel_size: 3
    weight_filler {
      type: "xavier"
    }
    bias_filler {
      type: "constant"
      value: 0
    }
  }
}
layer {
  name: "relu5_3"
  type: "ReLU"
  bottom: "conv5_3"
  top: "conv5_3"
}
layer {
  name: "pool5"
  type: "Pooling"
  bottom: "conv5_3"
  top: "pool5"
  pooling_param {
    pool: MAX
    kernel_size: 3
    stride: 1
    pad: 1
  }
}
layer {
  name: "fc6"
  type: "Convolution"
  bottom: "pool5"
  top: "fc6"
  param {
    lr_mult: 1
    decay_mult: 1
  }
  param {
    lr_mult: 2
    decay_mult: 0
  }
  convolution_param {
    num_output: 1024
    pad: 6
    kernel_size: 3
    weight_filler {
      type: "xavier"
    }
    bias_filler {
      type: "constant"
      value: 0
    }
    dilation: 6
  }
}
layer {
  name: "relu6"
  type: "ReLU"
  bottom: "fc6"
  top: "fc6"
}
layer {
  name: "fc7"
  type: "Convolution"
  bottom: "fc6"
  top: "fc7"
  param {
    lr_mult: 1
    decay_mult: 1
  }
  param {
    lr_mult: 2
    decay_mult: 0
  }
  convolution_param {
    num_output: 1024
    kernel_size: 1
    weight_filler {
      type: "xavier"
    }
    bias_filler {
      type: "constant"
      value: 0
    }
  }
}
layer {
  name: "relu7"
  type: "ReLU"
  bottom: "fc7"
  top: "fc7"
}
layer {
  name: "conv6_1"
  type: "Convolution"
  bottom: "fc7"
  top: "conv6_1"
  param {
    lr_mult: 1
    decay_mult: 1
  }
  param {
    lr_mult: 2
    decay_mult: 0
  }
  convolution_param {
    num_output: 256
    pad: 0
    kernel_size: 1
    stride: 1
    weight_filler {
      type: "xavier"
    }
    bias_filler {
      type: "constant"
      value: 0
    }
  }
}
layer {
  name: "conv6_1_relu"
  type: "ReLU"
  bottom: "conv6_1"
  top: "conv6_1"
}
layer {
  name: "conv6_2"
  type: "Convolution"
  bottom: "conv6_1"
  top: "conv6_2"
  param {
    lr_mult: 1
    decay_mult: 1
  }
  param {
    lr_mult: 2
    decay_mult: 0
  }
  convolution_param {
    num_output: 512
    pad: 1
    kernel_size: 3
    stride: 2
    weight_filler {
      type: "xavier"
    }
    bias_filler {
      type: "constant"
      value: 0
    }
  }
}
layer {
  name: "conv6_2_relu"
  type: "ReLU"
  bottom: "conv6_2"
  top: "conv6_2"
}
layer {
  name: "conv7_1"
  type: "Convolution"
  bottom: "conv6_2"
  top: "conv7_1"
  param {
    lr_mult: 1
    decay_mult: 1
  }
  param {
    lr_mult: 2
    decay_mult: 0
  }
  convolution_param {
    num_output: 128
    pad: 0
    kernel_size: 1
    stride: 1
    weight_filler {
      type: "xavier"
    }
    bias_filler {
      type: "constant"
      value: 0
    }
  }
}
layer {
  name: "conv7_1_relu"
  type: "ReLU"
  bottom: "conv7_1"
  top: "conv7_1"
}
layer {
  name: "conv7_2"
  type: "Convolution"
  bottom: "conv7_1"
  top: "conv7_2"
  param {
    lr_mult: 1
    decay_mult: 1
  }
  param {
    lr_mult: 2
    decay_mult: 0
  }
  convolution_param {
    num_output: 256
    pad: 1
    kernel_size: 3
    stride: 2
    weight_filler {
      type: "xavier"
    }
    bias_filler {
      type: "constant"
      value: 0
    }
  }
}
layer {
  name: "conv7_2_relu"
  type: "ReLU"
  bottom: "conv7_2"
  top: "conv7_2"
}
layer {
  name: "conv8_1"
  type: "Convolution"
  bottom: "conv7_2"
  top: "conv8_1"
  param {
    lr_mult: 1
    decay_mult: 1
  }
  param {
    lr_mult: 2
    decay_mult: 0
  }
  convolution_param {
    num_output: 128
    pad: 0
    kernel_size: 1
    stride: 1
    weight_filler {
      type: "xavier"
    }
    bias_filler {
      type: "constant"
      value: 0
    }
  }
}
layer {
  name: "conv8_1_relu"
  type: "ReLU"
  bottom: "conv8_1"
  top: "conv8_1"
}
layer {
  name: "conv8_2"
  type: "Convolution"
  bottom: "conv8_1"
  top: "conv8_2"
  param {
    lr_mult: 1
    decay_mult: 1
  }
  param {
    lr_mult: 2
    decay_mult: 0
  }
  convolution_param {
    num_output: 256
    pad: 1
    kernel_size: 3
    stride: 2
    weight_filler {
      type: "xavier"
    }
    bias_filler {
      type: "constant"
      value: 0
    }
  }
}
layer {
  name: "conv8_2_relu"
  type: "ReLU"
  bottom: "conv8_2"
  top: "conv8_2"
}
layer {
  name: "pool6"
  type: "Pooling"
  bottom: "conv8_2"
  top: "pool6"
  pooling_param {
    pool: AVE
    global_pooling: true
  }
}
layer {
  name: "conv4_3_norm"
  type: "Normalize"
  bottom: "conv4_3"
  top: "conv4_3_norm"
  norm_param {
    across_spatial: false
    scale_filler {
      type: "constant"
      value: 20
    }
    channel_shared: false
  }
}
layer {
  name: "conv4_3_norm_mbox_loc"
  type: "Convolution"
  bottom: "conv4_3_norm"
  top: "conv4_3_norm_mbox_loc"
  param {
    lr_mult: 1
    decay_mult: 1
  }
  param {
    lr_mult: 2
    decay_mult: 0
  }
  convolution_param {
    num_output: 12
    pad: 1
    kernel_size: 3
    stride: 1
    weight_filler {
      type: "xavier"
    }
    bias_filler {
      type: "constant"
      value: 0
    }
  }
}
layer {
  name: "conv4_3_norm_mbox_loc_perm"
  type: "Permute"
  bottom: "conv4_3_norm_mbox_loc"
  top: "conv4_3_norm_mbox_loc_perm"
  permute_param {
    order: 0
    order: 2
    order: 3
    order: 1
  }
}
layer {
  name: "conv4_3_norm_mbox_loc_flat"
  type: "Flatten"
  bottom: "conv4_3_norm_mbox_loc_perm"
  top: "conv4_3_norm_mbox_loc_flat"
  flatten_param {
    axis: 1
  }
}
layer {
  name: "conv4_3_norm_mbox_conf"
  type: "Convolution"
  bottom: "conv4_3_norm"
  top: "conv4_3_norm_mbox_conf"
  param {
    lr_mult: 1
    decay_mult: 1
  }
  param {
    lr_mult: 2
    decay_mult: 0
  }
  convolution_param {
    num_output: 36
    pad: 1
    kernel_size: 3
    stride: 1
    weight_filler {
      type: "xavier"
    }
    bias_filler {
      type: "constant"
      value: 0
    }
  }
}
layer {
  name: "conv4_3_norm_mbox_conf_perm"
  type: "Permute"
  bottom: "conv4_3_norm_mbox_conf"
  top: "conv4_3_norm_mbox_conf_perm"
  permute_param {
    order: 0
    order: 2
    order: 3
    order: 1
  }
}
layer {
  name: "conv4_3_norm_mbox_conf_flat"
  type: "Flatten"
  bottom: "conv4_3_norm_mbox_conf_perm"
  top: "conv4_3_norm_mbox_conf_flat"
  flatten_param {
    axis: 1
  }
}
layer {
  name: "conv4_3_norm_mbox_pose"
  type: "Convolution"
  bottom: "conv4_3_norm"
  top: "conv4_3_norm_mbox_pose"
  param {
    lr_mult: 1
    decay_mult: 1
  }
  param {
    lr_mult: 2
    decay_mult: 0
  }
  convolution_param {
    num_output: 24
    pad: 1
    kernel_size: 3
    stride: 1
    weight_filler {
      type: "xavier"
    }
    bias_filler {
      type: "constant"
      value: 0
    }
  }
}
layer {
  name: "conv4_3_norm_mbox_pose_perm"
  type: "Permute"
  bottom: "conv4_3_norm_mbox_pose"
  top: "conv4_3_norm_mbox_pose_perm"
  permute_param {
    order: 0
    order: 2
    order: 3
    order: 1
  }
}
layer {
  name: "conv4_3_norm_mbox_pose_flat"
  type: "Flatten"
  bottom: "conv4_3_norm_mbox_pose_perm"
  top: "conv4_3_norm_mbox_pose_flat"
  flatten_param {
    axis: 1
  }
}
layer {
  name: "conv4_3_norm_mbox_priorbox"
  type: "PriorBox"
  bottom: "conv4_3_norm"
  bottom: "data"
  top: "conv4_3_norm_mbox_priorbox"
  prior_box_param {
    min_size: 30
    aspect_ratio: 2
    flip: true
    clip: true
    variance: 0.1
    variance: 0.1
    variance: 0.2
    variance: 0.2
  }
}
layer {
  name: "fc7_mbox_loc"
  type: "Convolution"
  bottom: "fc7"
  top: "fc7_mbox_loc"
  param {
    lr_mult: 1
    decay_mult: 1
  }
  param {
    lr_mult: 2
    decay_mult: 0
  }
  convolution_param {
    num_output: 24
    pad: 1
    kernel_size: 3
    stride: 1
    weight_filler {
      type: "xavier"
    }
    bias_filler {
      type: "constant"
      value: 0
    }
  }
}
layer {
  name: "fc7_mbox_loc_perm"
  type: "Permute"
  bottom: "fc7_mbox_loc"
  top: "fc7_mbox_loc_perm"
  permute_param {
    order: 0
    order: 2
    order: 3
    order: 1
  }
}
layer {
  name: "fc7_mbox_loc_flat"
  type: "Flatten"
  bottom: "fc7_mbox_loc_perm"
  top: "fc7_mbox_loc_flat"
  flatten_param {
    axis: 1
  }
}
layer {
  name: "fc7_mbox_conf"
  type: "Convolution"
  bottom: "fc7"
  top: "fc7_mbox_conf"
  param {
    lr_mult: 1
    decay_mult: 1
  }
  param {
    lr_mult: 2
    decay_mult: 0
  }
  convolution_param {
    num_output: 72
    pad: 1
    kernel_size: 3
    stride: 1
    weight_filler {
      type: "xavier"
    }
    bias_filler {
      type: "constant"
      value: 0
    }
  }
}
layer {
  name: "fc7_mbox_conf_perm"
  type: "Permute"
  bottom: "fc7_mbox_conf"
  top: "fc7_mbox_conf_perm"
  permute_param {
    order: 0
    order: 2
    order: 3
    order: 1
  }
}
layer {
  name: "fc7_mbox_conf_flat"
  type: "Flatten"
  bottom: "fc7_mbox_conf_perm"
  top: "fc7_mbox_conf_flat"
  flatten_param {
    axis: 1
  }
}
layer {
  name: "fc7_mbox_pose"
  type: "Convolution"
  bottom: "fc7"
  top: "fc7_mbox_pose"
  param {
    lr_mult: 1
    decay_mult: 1
  }
  param {
    lr_mult: 2
    decay_mult: 0
  }
  convolution_param {
    num_output: 48
    pad: 1
    kernel_size: 3
    stride: 1
    weight_filler {
      type: "xavier"
    }
    bias_filler {
      type: "constant"
      value: 0
    }
  }
}
layer {
  name: "fc7_mbox_pose_perm"
  type: "Permute"
  bottom: "fc7_mbox_pose"
  top: "fc7_mbox_pose_perm"
  permute_param {
    order: 0
    order: 2
    order: 3
    order: 1
  }
}
layer {
  name: "fc7_mbox_pose_flat"
  type: "Flatten"
  bottom: "fc7_mbox_pose_perm"
  top: "fc7_mbox_pose_flat"
  flatten_param {
    axis: 1
  }
}
layer {
  name: "fc7_mbox_priorbox"
  type: "PriorBox"
  bottom: "fc7"
  bottom: "data"
  top: "fc7_mbox_priorbox"
  prior_box_param {
    min_size: 60
    max_size: 114
    aspect_ratio: 2
    aspect_ratio: 3
    flip: true
    clip: true
    variance: 0.1
    variance: 0.1
    variance: 0.2
    variance: 0.2
  }
}
layer {
  name: "conv6_2_mbox_loc"
  type: "Convolution"
  bottom: "conv6_2"
  top: "conv6_2_mbox_loc"
  param {
    lr_mult: 1
    decay_mult: 1
  }
  param {
    lr_mult: 2
    decay_mult: 0
  }
  convolution_param {
    num_output: 24
    pad: 1
    kernel_size: 3
    stride: 1
    weight_filler {
      type: "xavier"
    }
    bias_filler {
      type: "constant"
      value: 0
    }
  }
}
layer {
  name: "conv6_2_mbox_loc_perm"
  type: "Permute"
  bottom: "conv6_2_mbox_loc"
  top: "conv6_2_mbox_loc_perm"
  permute_param {
    order: 0
    order: 2
    order: 3
    order: 1
  }
}
layer {
  name: "conv6_2_mbox_loc_flat"
  type: "Flatten"
  bottom: "conv6_2_mbox_loc_perm"
  top: "conv6_2_mbox_loc_flat"
  flatten_param {
    axis: 1
  }
}
layer {
  name: "conv6_2_mbox_conf"
  type: "Convolution"
  bottom: "conv6_2"
  top: "conv6_2_mbox_conf"
  param {
    lr_mult: 1
    decay_mult: 1
  }
  param {
    lr_mult: 2
    decay_mult: 0
  }
  convolution_param {
    num_output: 72
    pad: 1
    kernel_size: 3
    stride: 1
    weight_filler {
      type: "xavier"
    }
    bias_filler {
      type: "constant"
      value: 0
    }
  }
}
layer {
  name: "conv6_2_mbox_conf_perm"
  type: "Permute"
  bottom: "conv6_2_mbox_conf"
  top: "conv6_2_mbox_conf_perm"
  permute_param {
    order: 0
    order: 2
    order: 3
    order: 1
  }
}
layer {
  name: "conv6_2_mbox_conf_flat"
  type: "Flatten"
  bottom: "conv6_2_mbox_conf_perm"
  top: "conv6_2_mbox_conf_flat"
  flatten_param {
    axis: 1
  }
}
layer {
  name: "conv6_2_mbox_pose"
  type: "Convolution"
  bottom: "conv6_2"
  top: "conv6_2_mbox_pose"
  param {
    lr_mult: 1
    decay_mult: 1
  }
  param {
    lr_mult: 2
    decay_mult: 0
  }
  convolution_param {
    num_output: 48
    pad: 1
    kernel_size: 3
    stride: 1
    weight_filler {
      type: "xavier"
    }
    bias_filler {
      type: "constant"
      value: 0
    }
  }
}
layer {
  name: "conv6_2_mbox_pose_perm"
  type: "Permute"
  bottom: "conv6_2_mbox_pose"
  top: "conv6_2_mbox_pose_perm"
  permute_param {
    order: 0
    order: 2
    order: 3
    order: 1
  }
}
layer {
  name: "conv6_2_mbox_pose_flat"
  type: "Flatten"
  bottom: "conv6_2_mbox_pose_perm"
  top: "conv6_2_mbox_pose_flat"
  flatten_param {
    axis: 1
  }
}
layer {
  name: "conv6_2_mbox_priorbox"
  type: "PriorBox"
  bottom: "conv6_2"
  bottom: "data"
  top: "conv6_2_mbox_priorbox"
  prior_box_param {
    min_size: 114
    max_size: 168
    aspect_ratio: 2
    aspect_ratio: 3
    flip: true
    clip: true
    variance: 0.1
    variance: 0.1
    variance: 0.2
    variance: 0.2
  }
}
layer {
  name: "conv7_2_mbox_loc"
  type: "Convolution"
  bottom: "conv7_2"
  top: "conv7_2_mbox_loc"
  param {
    lr_mult: 1
    decay_mult: 1
  }
  param {
    lr_mult: 2
    decay_mult: 0
  }
  convolution_param {
    num_output: 24
    pad: 1
    kernel_size: 3
    stride: 1
    weight_filler {
      type: "xavier"
    }
    bias_filler {
      type: "constant"
      value: 0
    }
  }
}
layer {
  name: "conv7_2_mbox_loc_perm"
  type: "Permute"
  bottom: "conv7_2_mbox_loc"
  top: "conv7_2_mbox_loc_perm"
  permute_param {
    order: 0
    order: 2
    order: 3
    order: 1
  }
}
layer {
  name: "conv7_2_mbox_loc_flat"
  type: "Flatten"
  bottom: "conv7_2_mbox_loc_perm"
  top: "conv7_2_mbox_loc_flat"
  flatten_param {
    axis: 1
  }
}
layer {
  name: "conv7_2_mbox_conf"
  type: "Convolution"
  bottom: "conv7_2"
  top: "conv7_2_mbox_conf"
  param {
    lr_mult: 1
    decay_mult: 1
  }
  param {
    lr_mult: 2
    decay_mult: 0
  }
  convolution_param {
    num_output: 72
    pad: 1
    kernel_size: 3
    stride: 1
    weight_filler {
      type: "xavier"
    }
    bias_filler {
      type: "constant"
      value: 0
    }
  }
}
layer {
  name: "conv7_2_mbox_conf_perm"
  type: "Permute"
  bottom: "conv7_2_mbox_conf"
  top: "conv7_2_mbox_conf_perm"
  permute_param {
    order: 0
    order: 2
    order: 3
    order: 1
  }
}
layer {
  name: "conv7_2_mbox_conf_flat"
  type: "Flatten"
  bottom: "conv7_2_mbox_conf_perm"
  top: "conv7_2_mbox_conf_flat"
  flatten_param {
    axis: 1
  }
}
layer {
  name: "conv7_2_mbox_pose"
  type: "Convolution"
  bottom: "conv7_2"
  top: "conv7_2_mbox_pose"
  param {
    lr_mult: 1
    decay_mult: 1
  }
  param {
    lr_mult: 2
    decay_mult: 0
  }
  convolution_param {
    num_output: 48
    pad: 1
    kernel_size: 3
    stride: 1
    weight_filler {
      type: "xavier"
    }
    bias_filler {
      type: "constant"
      value: 0
    }
  }
}
layer {
  name: "conv7_2_mbox_pose_perm"
  type: "Permute"
  bottom: "conv7_2_mbox_pose"
  top: "conv7_2_mbox_pose_perm"
  permute_param {
    order: 0
    order: 2
    order: 3
    order: 1
  }
}
layer {
  name: "conv7_2_mbox_pose_flat"
  type: "Flatten"
  bottom: "conv7_2_mbox_pose_perm"
  top: "conv7_2_mbox_pose_flat"
  flatten_param {
    axis: 1
  }
}
layer {
  name: "conv7_2_mbox_priorbox"
  type: "PriorBox"
  bottom: "conv7_2"
  bottom: "data"
  top: "conv7_2_mbox_priorbox"
  prior_box_param {
    min_size: 168
    max_size: 222
    aspect_ratio: 2
    aspect_ratio: 3
    flip: true
    clip: true
    variance: 0.1
    variance: 0.1
    variance: 0.2
    variance: 0.2
  }
}
layer {
  name: "conv8_2_mbox_loc"
  type: "Convolution"
  bottom: "conv8_2"
  top: "conv8_2_mbox_loc"
  param {
    lr_mult: 1
    decay_mult: 1
  }
  param {
    lr_mult: 2
    decay_mult: 0
  }
  convolution_param {
    num_output: 24
    pad: 1
    kernel_size: 3
    stride: 1
    weight_filler {
      type: "xavier"
    }
    bias_filler {
      type: "constant"
      value: 0
    }
  }
}
layer {
  name: "conv8_2_mbox_loc_perm"
  type: "Permute"
  bottom: "conv8_2_mbox_loc"
  top: "conv8_2_mbox_loc_perm"
  permute_param {
    order: 0
    order: 2
    order: 3
    order: 1
  }
}
layer {
  name: "conv8_2_mbox_loc_flat"
  type: "Flatten"
  bottom: "conv8_2_mbox_loc_perm"
  top: "conv8_2_mbox_loc_flat"
  flatten_param {
    axis: 1
  }
}
layer {
  name: "conv8_2_mbox_conf"
  type: "Convolution"
  bottom: "conv8_2"
  top: "conv8_2_mbox_conf"
  param {
    lr_mult: 1
    decay_mult: 1
  }
  param {
    lr_mult: 2
    decay_mult: 0
  }
  convolution_param {
    num_output: 72
    pad: 1
    kernel_size: 3
    stride: 1
    weight_filler {
      type: "xavier"
    }
    bias_filler {
      type: "constant"
      value: 0
    }
  }
}
layer {
  name: "conv8_2_mbox_conf_perm"
  type: "Permute"
  bottom: "conv8_2_mbox_conf"
  top: "conv8_2_mbox_conf_perm"
  permute_param {
    order: 0
    order: 2
    order: 3
    order: 1
  }
}
layer {
  name: "conv8_2_mbox_conf_flat"
  type: "Flatten"
  bottom: "conv8_2_mbox_conf_perm"
  top: "conv8_2_mbox_conf_flat"
  flatten_param {
    axis: 1
  }
}
layer {
  name: "conv8_2_mbox_pose"
  type: "Convolution"
  bottom: "conv8_2"
  top: "conv8_2_mbox_pose"
  param {
    lr_mult: 1
    decay_mult: 1
  }
  param {
    lr_mult: 2
    decay_mult: 0
  }
  convolution_param {
    num_output: 48
    pad: 1
    kernel_size: 3
    stride: 1
    weight_filler {
      type: "xavier"
    }
    bias_filler {
      type: "constant"
      value: 0
    }
  }
}
layer {
  name: "conv8_2_mbox_pose_perm"
  type: "Permute"
  bottom: "conv8_2_mbox_pose"
  top: "conv8_2_mbox_pose_perm"
  permute_param {
    order: 0
    order: 2
    order: 3
    order: 1
  }
}
layer {
  name: "conv8_2_mbox_pose_flat"
  type: "Flatten"
  bottom: "conv8_2_mbox_pose_perm"
  top: "conv8_2_mbox_pose_flat"
  flatten_param {
    axis: 1
  }
}
layer {
  name: "conv8_2_mbox_priorbox"
  type: "PriorBox"
  bottom: "conv8_2"
  bottom: "data"
  top: "conv8_2_mbox_priorbox"
  prior_box_param {
    min_size: 222
    max_size: 276
    aspect_ratio: 2
    aspect_ratio: 3
    flip: true
    clip: true
    variance: 0.1
    variance: 0.1
    variance: 0.2
    variance: 0.2
  }
}
layer {
  name: "pool6_mbox_loc"
  type: "Convolution"
  bottom: "pool6"
  top: "pool6_mbox_loc"
  param {
    lr_mult: 1
    decay_mult: 1
  }
  param {
    lr_mult: 2
    decay_mult: 0
  }
  convolution_param {
    num_output: 24
    pad: 1
    kernel_size: 3
    stride: 1
    weight_filler {
      type: "xavier"
    }
    bias_filler {
      type: "constant"
      value: 0
    }
  }
}
layer {
  name: "pool6_mbox_loc_perm"
  type: "Permute"
  bottom: "pool6_mbox_loc"
  top: "pool6_mbox_loc_perm"
  permute_param {
    order: 0
    order: 2
    order: 3
    order: 1
  }
}
layer {
  name: "pool6_mbox_loc_flat"
  type: "Flatten"
  bottom: "pool6_mbox_loc_perm"
  top: "pool6_mbox_loc_flat"
  flatten_param {
    axis: 1
  }
}
layer {
  name: "pool6_mbox_conf"
  type: "Convolution"
  bottom: "pool6"
  top: "pool6_mbox_conf"
  param {
    lr_mult: 1
    decay_mult: 1
  }
  param {
    lr_mult: 2
    decay_mult: 0
  }
  convolution_param {
    num_output: 72
    pad: 1
    kernel_size: 3
    stride: 1
    weight_filler {
      type: "xavier"
    }
    bias_filler {
      type: "constant"
      value: 0
    }
  }
}
layer {
  name: "pool6_mbox_conf_perm"
  type: "Permute"
  bottom: "pool6_mbox_conf"
  top: "pool6_mbox_conf_perm"
  permute_param {
    order: 0
    order: 2
    order: 3
    order: 1
  }
}
layer {
  name: "pool6_mbox_conf_flat"
  type: "Flatten"
  bottom: "pool6_mbox_conf_perm"
  top: "pool6_mbox_conf_flat"
  flatten_param {
    axis: 1
  }
}
layer {
  name: "pool6_mbox_pose"
  type: "Convolution"
  bottom: "pool6"
  top: "pool6_mbox_pose"
  param {
    lr_mult: 1
    decay_mult: 1
  }
  param {
    lr_mult: 2
    decay_mult: 0
  }
  convolution_param {
    num_output: 48
    pad: 1
    kernel_size: 3
    stride: 1
    weight_filler {
      type: "xavier"
    }
    bias_filler {
      type: "constant"
      value: 0
    }
  }
}
layer {
  name: "pool6_mbox_pose_perm"
  type: "Permute"
  bottom: "pool6_mbox_pose"
  top: "pool6_mbox_pose_perm"
  permute_param {
    order: 0
    order: 2
    order: 3
    order: 1
  }
}
layer {
  name: "pool6_mbox_pose_flat"
  type: "Flatten"
  bottom: "pool6_mbox_pose_perm"
  top: "pool6_mbox_pose_flat"
  flatten_param {
    axis: 1
  }
}
layer {
  name: "pool6_mbox_priorbox"
  type: "PriorBox"
  bottom: "pool6"
  bottom: "data"
  top: "pool6_mbox_priorbox"
  prior_box_param {
    min_size: 276
    max_size: 330
    aspect_ratio: 2
    aspect_ratio: 3
    flip: true
    clip: true
    variance: 0.1
    variance: 0.1
    variance: 0.2
    variance: 0.2
  }
}
layer {
  name: "mbox_loc"
  type: "Concat"
  bottom: "conv4_3_norm_mbox_loc_flat"
  bottom: "fc7_mbox_loc_flat"
  bottom: "conv6_2_mbox_loc_flat"
  bottom: "conv7_2_mbox_loc_flat"
  bottom: "conv8_2_mbox_loc_flat"
  bottom: "pool6_mbox_loc_flat"
  top: "mbox_loc"
  concat_param {
    axis: 1
  }
}
layer {
  name: "mbox_conf"
  type: "Concat"
  bottom: "conv4_3_norm_mbox_conf_flat"
  bottom: "fc7_mbox_conf_flat"
  bottom: "conv6_2_mbox_conf_flat"
  bottom: "conv7_2_mbox_conf_flat"
  bottom: "conv8_2_mbox_conf_flat"
  bottom: "pool6_mbox_conf_flat"
  top: "mbox_conf"
  concat_param {
    axis: 1
  }
}
layer {
  name: "mbox_pose"
  type: "Concat"
  bottom: "conv4_3_norm_mbox_pose_flat"
  bottom: "fc7_mbox_pose_flat"
  bottom: "conv6_2_mbox_pose_flat"
  bottom: "conv7_2_mbox_pose_flat"
  bottom: "conv8_2_mbox_pose_flat"
  bottom: "pool6_mbox_pose_flat"
  top: "mbox_pose"
  concat_param {
    axis: 1
  }
}
layer {
  name: "mbox_priorbox"
  type: "Concat"
  bottom: "conv4_3_norm_mbox_priorbox"
  bottom: "fc7_mbox_priorbox"
  bottom: "conv6_2_mbox_priorbox"
  bottom: "conv7_2_mbox_priorbox"
  bottom: "conv8_2_mbox_priorbox"
  bottom: "pool6_mbox_priorbox"
  top: "mbox_priorbox"
  concat_param {
    axis: 2
  }
}
layer {
  name: "mbox_conf_reshape"
  type: "Reshape"
  bottom: "mbox_conf"
  top: "mbox_conf_reshape"
  reshape_param {
    shape {
      dim: 0
      dim: -1
      dim: 12
    }
  }
}
layer {
  name: "mbox_conf_softmax"
  type: "Softmax"
  bottom: "mbox_conf_reshape"
  top: "mbox_conf_softmax"
  softmax_param {
    axis: 2
  }
}
layer {
  name: "mbox_conf_flatten"
  type: "Flatten"
  bottom: "mbox_conf_softmax"
  top: "mbox_conf_flatten"
  flatten_param {
    axis: 1
  }
}
layer {
  name: "mbox_pose_reshape"
  type: "Reshape"
  bottom: "mbox_pose"
  top: "mbox_pose_reshape"
  reshape_param {
    shape {
      dim: 0
      dim: -1
      dim: 8
    }
  }
}
layer {
  name: "mbox_pose_softmax"
  type: "Softmax"
  bottom: "mbox_pose_reshape"
  top: "mbox_pose_softmax"
  softmax_param {
    axis: 2
  }
}
layer {
  name: "mbox_pose_flatten"
  type: "Flatten"
  bottom: "mbox_pose_softmax"
  top: "mbox_pose_flatten"
  flatten_param {
    axis: 1
  }
}
layer {
  name: "detection_out"
  type: "DetectionPoseOutput"
  bottom: "mbox_loc"
  bottom: "mbox_conf_flatten"
  bottom: "mbox_pose_flatten"
  bottom: "mbox_priorbox"
  top: "detection_out"
  include {
    phase: TEST
  }
  detection_pose_output_param {
    num_classes: 12
    share_location: true
    background_label_id: 0
    nms_param {
      nms_threshold: 0.45
      top_k: 400
    }
    save_output_param {
      output_directory: "data/3Dpascal/pascal3D/results/SSD_share_pose_bins=8_diff=False_numPascal=4_size=300_lr=0.000040/Main"
      output_name_prefix: "comp4_det_test_"
      output_format: "VOC"
      label_map_file: "data/3Dpascal/pascal3D//labelmap_3D.prototxt"
      num_test_image: 500
    }
    code_type: CENTER_SIZE
    keep_top_k: 200
    confidence_threshold: 0.01
    num_poses: 8
    share_pose: true
  }
}
layer {
  name: "detection_eval"
  type: "DetectionEvaluatePose"
  bottom: "detection_out"
  bottom: "label"
  top: "detection_eval"
  include {
    phase: TEST
  }
I0621 00:22:38.917237 101073 layer_factory.hpp:77] Creating layer data
I0621 00:22:38.917309 101073 net.cpp:91] Creating Layer data
I0621 00:22:38.917318 101073 net.cpp:399] data -> data
I0621 00:22:38.917330 101073 net.cpp:399] data -> label
I0621 00:22:38.918252 101149 db_lmdb.cpp:35] Opened lmdb data/3Dpascal/pascal3D/lmdb/val_lmdb_bins_8_300
I0621 00:22:38.920238 101073 annotated_data_layer.cpp:52] output data size: 1,3,300,300
I0621 00:22:38.930340 101073 net.cpp:141] Setting up data
I0621 00:22:38.930356 101073 net.cpp:148] Top shape: 1 3 300 300 (270000)
I0621 00:22:38.930362 101073 net.cpp:148] Top shape: 1 1 1 9 (9)
I0621 00:22:38.930366 101073 net.cpp:156] Memory required for data: 1080036
I0621 00:22:38.930371 101073 layer_factory.hpp:77] Creating layer data_data_0_split
I0621 00:22:38.930382 101073 net.cpp:91] Creating Layer data_data_0_split
I0621 00:22:38.930385 101073 net.cpp:425] data_data_0_split <- data
I0621 00:22:38.930392 101073 net.cpp:399] data_data_0_split -> data_data_0_split_0
I0621 00:22:38.930402 101073 net.cpp:399] data_data_0_split -> data_data_0_split_1
I0621 00:22:38.930408 101073 net.cpp:399] data_data_0_split -> data_data_0_split_2
I0621 00:22:38.930415 101073 net.cpp:399] data_data_0_split -> data_data_0_split_3
I0621 00:22:38.930421 101073 net.cpp:399] data_data_0_split -> data_data_0_split_4
I0621 00:22:38.930426 101073 net.cpp:399] data_data_0_split -> data_data_0_split_5
I0621 00:22:38.930430 101073 net.cpp:399] data_data_0_split -> data_data_0_split_6
I0621 00:22:38.930555 101073 net.cpp:141] Setting up data_data_0_split
I0621 00:22:38.930562 101073 net.cpp:148] Top shape: 1 3 300 300 (270000)
I0621 00:22:38.930567 101073 net.cpp:148] Top shape: 1 3 300 300 (270000)
I0621 00:22:38.930572 101073 net.cpp:148] Top shape: 1 3 300 300 (270000)
I0621 00:22:38.930574 101073 net.cpp:148] Top shape: 1 3 300 300 (270000)
I0621 00:22:38.930577 101073 net.cpp:148] Top shape: 1 3 300 300 (270000)
I0621 00:22:38.930583 101073 net.cpp:148] Top shape: 1 3 300 300 (270000)
I0621 00:22:38.930586 101073 net.cpp:148] Top shape: 1 3 300 300 (270000)
I0621 00:22:38.930588 101073 net.cpp:156] Memory required for data: 8640036
I0621 00:22:38.930591 101073 layer_factory.hpp:77] Creating layer conv1_1
I0621 00:22:38.930604 101073 net.cpp:91] Creating Layer conv1_1
I0621 00:22:38.930608 101073 net.cpp:425] conv1_1 <- data_data_0_split_0
I0621 00:22:38.930613 101073 net.cpp:399] conv1_1 -> conv1_1
I0621 00:22:38.931936 101073 net.cpp:141] Setting up conv1_1
I0621 00:22:38.931949 101073 net.cpp:148] Top shape: 1 64 300 300 (5760000)
I0621 00:22:38.931954 101073 net.cpp:156] Memory required for data: 31680036
I0621 00:22:38.931964 101073 layer_factory.hpp:77] Creating layer relu1_1
I0621 00:22:38.931972 101073 net.cpp:91] Creating Layer relu1_1
I0621 00:22:38.931975 101073 net.cpp:425] relu1_1 <- conv1_1
I0621 00:22:38.931979 101073 net.cpp:386] relu1_1 -> conv1_1 (in-place)
I0621 00:22:38.932258 101073 net.cpp:141] Setting up relu1_1
I0621 00:22:38.932270 101073 net.cpp:148] Top shape: 1 64 300 300 (5760000)
I0621 00:22:38.932272 101073 net.cpp:156] Memory required for data: 54720036
I0621 00:22:38.932291 101073 layer_factory.hpp:77] Creating layer conv1_2
I0621 00:22:38.932303 101073 net.cpp:91] Creating Layer conv1_2
I0621 00:22:38.932308 101073 net.cpp:425] conv1_2 <- conv1_1
I0621 00:22:38.932313 101073 net.cpp:399] conv1_2 -> conv1_2
I0621 00:22:38.933956 101073 net.cpp:141] Setting up conv1_2
I0621 00:22:38.933970 101073 net.cpp:148] Top shape: 1 64 300 300 (5760000)
I0621 00:22:38.933975 101073 net.cpp:156] Memory required for data: 77760036
I0621 00:22:38.933986 101073 layer_factory.hpp:77] Creating layer relu1_2
I0621 00:22:38.933993 101073 net.cpp:91] Creating Layer relu1_2
I0621 00:22:38.933997 101073 net.cpp:425] relu1_2 <- conv1_2
I0621 00:22:38.934001 101073 net.cpp:386] relu1_2 -> conv1_2 (in-place)
I0621 00:22:38.934170 101073 net.cpp:141] Setting up relu1_2
I0621 00:22:38.934178 101073 net.cpp:148] Top shape: 1 64 300 300 (5760000)
I0621 00:22:38.934183 101073 net.cpp:156] Memory required for data: 100800036
I0621 00:22:38.934186 101073 layer_factory.hpp:77] Creating layer pool1
I0621 00:22:38.934193 101073 net.cpp:91] Creating Layer pool1
I0621 00:22:38.934197 101073 net.cpp:425] pool1 <- conv1_2
I0621 00:22:38.934202 101073 net.cpp:399] pool1 -> pool1
I0621 00:22:38.934254 101073 net.cpp:141] Setting up pool1
I0621 00:22:38.934260 101073 net.cpp:148] Top shape: 1 64 150 150 (1440000)
I0621 00:22:38.934263 101073 net.cpp:156] Memory required for data: 106560036
I0621 00:22:38.934267 101073 layer_factory.hpp:77] Creating layer conv2_1
I0621 00:22:38.934275 101073 net.cpp:91] Creating Layer conv2_1
I0621 00:22:38.934279 101073 net.cpp:425] conv2_1 <- pool1
I0621 00:22:38.934285 101073 net.cpp:399] conv2_1 -> conv2_1
I0621 00:22:38.935881 101073 net.cpp:141] Setting up conv2_1
I0621 00:22:38.935894 101073 net.cpp:148] Top shape: 1 128 150 150 (2880000)
I0621 00:22:38.935899 101073 net.cpp:156] Memory required for data: 118080036
I0621 00:22:38.935907 101073 layer_factory.hpp:77] Creating layer relu2_1
I0621 00:22:38.935915 101073 net.cpp:91] Creating Layer relu2_1
I0621 00:22:38.935920 101073 net.cpp:425] relu2_1 <- conv2_1
I0621 00:22:38.935923 101073 net.cpp:386] relu2_1 -> conv2_1 (in-place)
I0621 00:22:38.936307 101073 net.cpp:141] Setting up relu2_1
I0621 00:22:38.936318 101073 net.cpp:148] Top shape: 1 128 150 150 (2880000)
I0621 00:22:38.936322 101073 net.cpp:156] Memory required for data: 129600036
I0621 00:22:38.936326 101073 layer_factory.hpp:77] Creating layer conv2_2
I0621 00:22:38.936336 101073 net.cpp:91] Creating Layer conv2_2
I0621 00:22:38.936339 101073 net.cpp:425] conv2_2 <- conv2_1
I0621 00:22:38.936347 101073 net.cpp:399] conv2_2 -> conv2_2
I0621 00:22:38.938707 101073 net.cpp:141] Setting up conv2_2
I0621 00:22:38.938735 101073 net.cpp:148] Top shape: 1 128 150 150 (2880000)
I0621 00:22:38.938740 101073 net.cpp:156] Memory required for data: 141120036
I0621 00:22:38.938750 101073 layer_factory.hpp:77] Creating layer relu2_2
I0621 00:22:38.938762 101073 net.cpp:91] Creating Layer relu2_2
I0621 00:22:38.938767 101073 net.cpp:425] relu2_2 <- conv2_2
I0621 00:22:38.938777 101073 net.cpp:386] relu2_2 -> conv2_2 (in-place)
I0621 00:22:38.939054 101073 net.cpp:141] Setting up relu2_2
I0621 00:22:38.939066 101073 net.cpp:148] Top shape: 1 128 150 150 (2880000)
I0621 00:22:38.939069 101073 net.cpp:156] Memory required for data: 152640036
I0621 00:22:38.939072 101073 layer_factory.hpp:77] Creating layer pool2
I0621 00:22:38.939079 101073 net.cpp:91] Creating Layer pool2
I0621 00:22:38.939086 101073 net.cpp:425] pool2 <- conv2_2
I0621 00:22:38.939095 101073 net.cpp:399] pool2 -> pool2
I0621 00:22:38.939162 101073 net.cpp:141] Setting up pool2
I0621 00:22:38.939173 101073 net.cpp:148] Top shape: 1 128 75 75 (720000)
I0621 00:22:38.939178 101073 net.cpp:156] Memory required for data: 155520036
I0621 00:22:38.939188 101073 layer_factory.hpp:77] Creating layer conv3_1
I0621 00:22:38.939203 101073 net.cpp:91] Creating Layer conv3_1
I0621 00:22:38.939208 101073 net.cpp:425] conv3_1 <- pool2
I0621 00:22:38.939214 101073 net.cpp:399] conv3_1 -> conv3_1
I0621 00:22:38.942492 101073 net.cpp:141] Setting up conv3_1
I0621 00:22:38.942507 101073 net.cpp:148] Top shape: 1 256 75 75 (1440000)
I0621 00:22:38.942512 101073 net.cpp:156] Memory required for data: 161280036
I0621 00:22:38.942523 101073 layer_factory.hpp:77] Creating layer relu3_1
I0621 00:22:38.942529 101073 net.cpp:91] Creating Layer relu3_1
I0621 00:22:38.942534 101073 net.cpp:425] relu3_1 <- conv3_1
I0621 00:22:38.942539 101073 net.cpp:386] relu3_1 -> conv3_1 (in-place)
I0621 00:22:38.943356 101073 net.cpp:141] Setting up relu3_1
I0621 00:22:38.943366 101073 net.cpp:148] Top shape: 1 256 75 75 (1440000)
I0621 00:22:38.943368 101073 net.cpp:156] Memory required for data: 167040036
I0621 00:22:38.943372 101073 layer_factory.hpp:77] Creating layer conv3_2
I0621 00:22:38.943382 101073 net.cpp:91] Creating Layer conv3_2
I0621 00:22:38.943384 101073 net.cpp:425] conv3_2 <- conv3_1
I0621 00:22:38.943390 101073 net.cpp:399] conv3_2 -> conv3_2
I0621 00:22:38.951475 101073 net.cpp:141] Setting up conv3_2
I0621 00:22:38.951491 101073 net.cpp:148] Top shape: 1 256 75 75 (1440000)
I0621 00:22:38.951495 101073 net.cpp:156] Memory required for data: 172800036
I0621 00:22:38.951501 101073 layer_factory.hpp:77] Creating layer relu3_2
I0621 00:22:38.951511 101073 net.cpp:91] Creating Layer relu3_2
I0621 00:22:38.951515 101073 net.cpp:425] relu3_2 <- conv3_2
I0621 00:22:38.951519 101073 net.cpp:386] relu3_2 -> conv3_2 (in-place)
I0621 00:22:38.959309 101073 net.cpp:141] Setting up relu3_2
I0621 00:22:38.959322 101073 net.cpp:148] Top shape: 1 256 75 75 (1440000)
I0621 00:22:38.959326 101073 net.cpp:156] Memory required for data: 178560036
I0621 00:22:38.959331 101073 layer_factory.hpp:77] Creating layer conv3_3
I0621 00:22:38.959347 101073 net.cpp:91] Creating Layer conv3_3
I0621 00:22:38.959350 101073 net.cpp:425] conv3_3 <- conv3_2
I0621 00:22:38.959357 101073 net.cpp:399] conv3_3 -> conv3_3
I0621 00:22:38.965804 101073 net.cpp:141] Setting up conv3_3
I0621 00:22:38.965817 101073 net.cpp:148] Top shape: 1 256 75 75 (1440000)
I0621 00:22:38.965821 101073 net.cpp:156] Memory required for data: 184320036
I0621 00:22:38.965826 101073 layer_factory.hpp:77] Creating layer relu3_3
I0621 00:22:38.965832 101073 net.cpp:91] Creating Layer relu3_3
I0621 00:22:38.965837 101073 net.cpp:425] relu3_3 <- conv3_3
I0621 00:22:38.965840 101073 net.cpp:386] relu3_3 -> conv3_3 (in-place)
I0621 00:22:38.966820 101073 net.cpp:141] Setting up relu3_3
I0621 00:22:38.966831 101073 net.cpp:148] Top shape: 1 256 75 75 (1440000)
I0621 00:22:38.966835 101073 net.cpp:156] Memory required for data: 190080036
I0621 00:22:38.966837 101073 layer_factory.hpp:77] Creating layer pool3
I0621 00:22:38.966845 101073 net.cpp:91] Creating Layer pool3
I0621 00:22:38.966850 101073 net.cpp:425] pool3 <- conv3_3
I0621 00:22:38.966856 101073 net.cpp:399] pool3 -> pool3
I0621 00:22:38.966907 101073 net.cpp:141] Setting up pool3
I0621 00:22:38.966913 101073 net.cpp:148] Top shape: 1 256 38 38 (369664)
I0621 00:22:38.966918 101073 net.cpp:156] Memory required for data: 191558692
I0621 00:22:38.966922 101073 layer_factory.hpp:77] Creating layer conv4_1
I0621 00:22:38.966936 101073 net.cpp:91] Creating Layer conv4_1
I0621 00:22:38.966943 101073 net.cpp:425] conv4_1 <- pool3
I0621 00:22:38.966950 101073 net.cpp:399] conv4_1 -> conv4_1
I0621 00:22:38.978104 101073 net.cpp:141] Setting up conv4_1
I0621 00:22:38.978118 101073 net.cpp:148] Top shape: 1 512 38 38 (739328)
I0621 00:22:38.978121 101073 net.cpp:156] Memory required for data: 194516004
I0621 00:22:38.978127 101073 layer_factory.hpp:77] Creating layer relu4_1
I0621 00:22:38.978132 101073 net.cpp:91] Creating Layer relu4_1
I0621 00:22:38.978135 101073 net.cpp:425] relu4_1 <- conv4_1
I0621 00:22:38.978140 101073 net.cpp:386] relu4_1 -> conv4_1 (in-place)
I0621 00:22:38.979497 101073 net.cpp:141] Setting up relu4_1
I0621 00:22:38.979506 101073 net.cpp:148] Top shape: 1 512 38 38 (739328)
I0621 00:22:38.979508 101073 net.cpp:156] Memory required for data: 197473316
I0621 00:22:38.979511 101073 layer_factory.hpp:77] Creating layer conv4_2
I0621 00:22:38.979537 101073 net.cpp:91] Creating Layer conv4_2
I0621 00:22:38.979542 101073 net.cpp:425] conv4_2 <- conv4_1
I0621 00:22:38.979548 101073 net.cpp:399] conv4_2 -> conv4_2
I0621 00:22:38.997516 101073 net.cpp:141] Setting up conv4_2
I0621 00:22:38.997531 101073 net.cpp:148] Top shape: 1 512 38 38 (739328)
I0621 00:22:38.997536 101073 net.cpp:156] Memory required for data: 200430628
I0621 00:22:38.997548 101073 layer_factory.hpp:77] Creating layer relu4_2
I0621 00:22:38.997555 101073 net.cpp:91] Creating Layer relu4_2
I0621 00:22:38.997558 101073 net.cpp:425] relu4_2 <- conv4_2
I0621 00:22:38.997563 101073 net.cpp:386] relu4_2 -> conv4_2 (in-place)
I0621 00:22:38.997838 101073 net.cpp:141] Setting up relu4_2
I0621 00:22:38.997848 101073 net.cpp:148] Top shape: 1 512 38 38 (739328)
I0621 00:22:38.997851 101073 net.cpp:156] Memory required for data: 203387940
I0621 00:22:38.997855 101073 layer_factory.hpp:77] Creating layer conv4_3
I0621 00:22:38.997864 101073 net.cpp:91] Creating Layer conv4_3
I0621 00:22:38.997869 101073 net.cpp:425] conv4_3 <- conv4_2
I0621 00:22:38.997875 101073 net.cpp:399] conv4_3 -> conv4_3
I0621 00:22:39.029189 101073 net.cpp:141] Setting up conv4_3
I0621 00:22:39.029212 101073 net.cpp:148] Top shape: 1 512 38 38 (739328)
I0621 00:22:39.029217 101073 net.cpp:156] Memory required for data: 206345252
I0621 00:22:39.029224 101073 layer_factory.hpp:77] Creating layer relu4_3
I0621 00:22:39.029234 101073 net.cpp:91] Creating Layer relu4_3
I0621 00:22:39.029242 101073 net.cpp:425] relu4_3 <- conv4_3
I0621 00:22:39.029247 101073 net.cpp:386] relu4_3 -> conv4_3 (in-place)
I0621 00:22:39.047580 101073 net.cpp:141] Setting up relu4_3
I0621 00:22:39.047598 101073 net.cpp:148] Top shape: 1 512 38 38 (739328)
I0621 00:22:39.047603 101073 net.cpp:156] Memory required for data: 209302564
I0621 00:22:39.047608 101073 layer_factory.hpp:77] Creating layer conv4_3_relu4_3_0_split
I0621 00:22:39.047621 101073 net.cpp:91] Creating Layer conv4_3_relu4_3_0_split
I0621 00:22:39.047628 101073 net.cpp:425] conv4_3_relu4_3_0_split <- conv4_3
I0621 00:22:39.047637 101073 net.cpp:399] conv4_3_relu4_3_0_split -> conv4_3_relu4_3_0_split_0
I0621 00:22:39.047646 101073 net.cpp:399] conv4_3_relu4_3_0_split -> conv4_3_relu4_3_0_split_1
I0621 00:22:39.047760 101073 net.cpp:141] Setting up conv4_3_relu4_3_0_split
I0621 00:22:39.047766 101073 net.cpp:148] Top shape: 1 512 38 38 (739328)
I0621 00:22:39.047771 101073 net.cpp:148] Top shape: 1 512 38 38 (739328)
I0621 00:22:39.047773 101073 net.cpp:156] Memory required for data: 215217188
I0621 00:22:39.047776 101073 layer_factory.hpp:77] Creating layer pool4
I0621 00:22:39.047786 101073 net.cpp:91] Creating Layer pool4
I0621 00:22:39.047791 101073 net.cpp:425] pool4 <- conv4_3_relu4_3_0_split_0
I0621 00:22:39.047798 101073 net.cpp:399] pool4 -> pool4
I0621 00:22:39.047847 101073 net.cpp:141] Setting up pool4
I0621 00:22:39.047852 101073 net.cpp:148] Top shape: 1 512 19 19 (184832)
I0621 00:22:39.047857 101073 net.cpp:156] Memory required for data: 215956516
I0621 00:22:39.047859 101073 layer_factory.hpp:77] Creating layer conv5_1
I0621 00:22:39.047874 101073 net.cpp:91] Creating Layer conv5_1
I0621 00:22:39.047878 101073 net.cpp:425] conv5_1 <- pool4
I0621 00:22:39.047884 101073 net.cpp:399] conv5_1 -> conv5_1
I0621 00:22:39.069329 101073 net.cpp:141] Setting up conv5_1
I0621 00:22:39.069345 101073 net.cpp:148] Top shape: 1 512 19 19 (184832)
I0621 00:22:39.069350 101073 net.cpp:156] Memory required for data: 216695844
I0621 00:22:39.069358 101073 layer_factory.hpp:77] Creating layer relu5_1
I0621 00:22:39.069368 101073 net.cpp:91] Creating Layer relu5_1
I0621 00:22:39.069375 101073 net.cpp:425] relu5_1 <- conv5_1
I0621 00:22:39.069380 101073 net.cpp:386] relu5_1 -> conv5_1 (in-place)
I0621 00:22:39.070875 101073 net.cpp:141] Setting up relu5_1
I0621 00:22:39.070884 101073 net.cpp:148] Top shape: 1 512 19 19 (184832)
I0621 00:22:39.070888 101073 net.cpp:156] Memory required for data: 217435172
I0621 00:22:39.070891 101073 layer_factory.hpp:77] Creating layer conv5_2
I0621 00:22:39.070920 101073 net.cpp:91] Creating Layer conv5_2
I0621 00:22:39.070925 101073 net.cpp:425] conv5_2 <- conv5_1
I0621 00:22:39.070931 101073 net.cpp:399] conv5_2 -> conv5_2
I0621 00:22:39.090647 101073 net.cpp:141] Setting up conv5_2
I0621 00:22:39.090664 101073 net.cpp:148] Top shape: 1 512 19 19 (184832)
I0621 00:22:39.090668 101073 net.cpp:156] Memory required for data: 218174500
I0621 00:22:39.090675 101073 layer_factory.hpp:77] Creating layer relu5_2
I0621 00:22:39.090687 101073 net.cpp:91] Creating Layer relu5_2
I0621 00:22:39.090692 101073 net.cpp:425] relu5_2 <- conv5_2
I0621 00:22:39.090698 101073 net.cpp:386] relu5_2 -> conv5_2 (in-place)
I0621 00:22:39.094703 101073 net.cpp:141] Setting up relu5_2
I0621 00:22:39.094715 101073 net.cpp:148] Top shape: 1 512 19 19 (184832)
I0621 00:22:39.094720 101073 net.cpp:156] Memory required for data: 218913828
I0621 00:22:39.094724 101073 layer_factory.hpp:77] Creating layer conv5_3
I0621 00:22:39.094738 101073 net.cpp:91] Creating Layer conv5_3
I0621 00:22:39.094741 101073 net.cpp:425] conv5_3 <- conv5_2
I0621 00:22:39.094748 101073 net.cpp:399] conv5_3 -> conv5_3
I0621 00:22:39.143167 101073 net.cpp:141] Setting up conv5_3
I0621 00:22:39.143188 101073 net.cpp:148] Top shape: 1 512 19 19 (184832)
I0621 00:22:39.143193 101073 net.cpp:156] Memory required for data: 219653156
I0621 00:22:39.143199 101073 layer_factory.hpp:77] Creating layer relu5_3
I0621 00:22:39.143224 101073 net.cpp:91] Creating Layer relu5_3
I0621 00:22:39.143230 101073 net.cpp:425] relu5_3 <- conv5_3
I0621 00:22:39.143237 101073 net.cpp:386] relu5_3 -> conv5_3 (in-place)
I0621 00:22:39.162453 101073 net.cpp:141] Setting up relu5_3
I0621 00:22:39.162467 101073 net.cpp:148] Top shape: 1 512 19 19 (184832)
I0621 00:22:39.162469 101073 net.cpp:156] Memory required for data: 220392484
I0621 00:22:39.162472 101073 layer_factory.hpp:77] Creating layer pool5
I0621 00:22:39.162482 101073 net.cpp:91] Creating Layer pool5
I0621 00:22:39.162484 101073 net.cpp:425] pool5 <- conv5_3
I0621 00:22:39.162490 101073 net.cpp:399] pool5 -> pool5
I0621 00:22:39.162549 101073 net.cpp:141] Setting up pool5
I0621 00:22:39.162555 101073 net.cpp:148] Top shape: 1 512 19 19 (184832)
I0621 00:22:39.162557 101073 net.cpp:156] Memory required for data: 221131812
I0621 00:22:39.162560 101073 layer_factory.hpp:77] Creating layer fc6
I0621 00:22:39.162574 101073 net.cpp:91] Creating Layer fc6
I0621 00:22:39.162576 101073 net.cpp:425] fc6 <- pool5
I0621 00:22:39.162582 101073 net.cpp:399] fc6 -> fc6
I0621 00:22:39.196975 101073 net.cpp:141] Setting up fc6
I0621 00:22:39.196998 101073 net.cpp:148] Top shape: 1 1024 19 19 (369664)
I0621 00:22:39.197003 101073 net.cpp:156] Memory required for data: 222610468
I0621 00:22:39.197011 101073 layer_factory.hpp:77] Creating layer relu6
I0621 00:22:39.197021 101073 net.cpp:91] Creating Layer relu6
I0621 00:22:39.197026 101073 net.cpp:425] relu6 <- fc6
I0621 00:22:39.197033 101073 net.cpp:386] relu6 -> fc6 (in-place)
I0621 00:22:39.197264 101073 net.cpp:141] Setting up relu6
I0621 00:22:39.197273 101073 net.cpp:148] Top shape: 1 1024 19 19 (369664)
I0621 00:22:39.197275 101073 net.cpp:156] Memory required for data: 224089124
I0621 00:22:39.197278 101073 layer_factory.hpp:77] Creating layer fc7
I0621 00:22:39.197291 101073 net.cpp:91] Creating Layer fc7
I0621 00:22:39.197294 101073 net.cpp:425] fc7 <- fc6
I0621 00:22:39.197301 101073 net.cpp:399] fc7 -> fc7
I0621 00:22:39.220129 101073 net.cpp:141] Setting up fc7
I0621 00:22:39.220144 101073 net.cpp:148] Top shape: 1 1024 19 19 (369664)
I0621 00:22:39.220149 101073 net.cpp:156] Memory required for data: 225567780
I0621 00:22:39.220155 101073 layer_factory.hpp:77] Creating layer relu7
…
I0621 00:22:39.295042 101073 net.cpp:399] conv7_2_conv7_2_relu_0_split -> conv7_2_conv7_2_relu_0_split_1
I0621 00:22:39.295048 101073 net.cpp:399] conv7_2_conv7_2_relu_0_split -> conv7_2_conv7_2_relu_0_split_2
I0621 00:22:39.295056 101073 net.cpp:399] conv7_2_conv7_2_relu_0_split -> conv7_2_conv7_2_relu_0_split_3
I0621 00:22:39.295061 101073 net.cpp:399] conv7_2_conv7_2_relu_0_split -> conv7_2_conv7_2_relu_0_split_4
I0621 00:22:39.295172 101073 net.cpp:141] Setting up conv7_2_conv7_2_relu_0_split
I0621 00:22:39.295178 101073 net.cpp:148] Top shape: 1 256 5 5 (6400)
I0621 00:22:39.295182 101073 net.cpp:148] Top shape: 1 256 5 5 (6400)
I0621 00:22:39.295184 101073 net.cpp:148] Top shape: 1 256 5 5 (6400)
I0621 00:22:39.295187 101073 net.cpp:148] Top shape: 1 256 5 5 (6400)
I0621 00:22:39.295191 101073 net.cpp:148] Top shape: 1 256 5 5 (6400)
I0621 00:22:39.295193 101073 net.cpp:156] Memory required for data: 236894244
I0621 00:22:39.295197 101073 layer_factory.hpp:77] Creating layer conv8_1
I0621 00:22:39.295209 101073 net.cpp:91] Creating Layer conv8_1
I0621 00:22:39.295214 101073 net.cpp:425] conv8_1 <- conv7_2_conv7_2_relu_0_split_0
I0621 00:22:39.295220 101073 net.cpp:399] conv8_1 -> conv8_1
I0621 00:22:39.304488 101073 net.cpp:141] Setting up conv8_1
I0621 00:22:39.304507 101073 net.cpp:148] Top shape: 1 128 5 5 (3200)
I0621 00:22:39.304512 101073 net.cpp:156] Memory required for data: 236907044
I0621 00:22:39.304538 101073 layer_factory.hpp:77] Creating layer conv8_1_relu
I0621 00:22:39.304554 101073 net.cpp:91] Creating Layer conv8_1_relu
I0621 00:22:39.304559 101073 net.cpp:425] conv8_1_relu <- conv8_1
I0621 00:22:39.304565 101073 net.cpp:386] conv8_1_relu -> conv8_1 (in-place)
I0621 00:22:39.307428 101073 net.cpp:141] Setting up conv8_1_relu
I0621 00:22:39.307436 101073 net.cpp:148] Top shape: 1 128 5 5 (3200)
I0621 00:22:39.307438 101073 net.cpp:156] Memory required for data: 236919844
I0621 00:22:39.307441 101073 layer_factory.hpp:77] Creating layer conv8_2
I0621 00:22:39.307453 101073 net.cpp:91] Creating Layer conv8_2
I0621 00:22:39.307457 101073 net.cpp:425] conv8_2 <- conv8_1
I0621 00:22:39.307463 101073 net.cpp:399] conv8_2 -> conv8_2
I0621 00:22:39.316920 101073 net.cpp:141] Setting up conv8_2
I0621 00:22:39.316933 101073 net.cpp:148] Top shape: 1 256 3 3 (2304)
I0621 00:22:39.316937 101073 net.cpp:156] Memory required for data: 236929060
I0621 00:22:39.316942 101073 layer_factory.hpp:77] Creating layer conv8_2_relu
I0621 00:22:39.316948 101073 net.cpp:91] Creating Layer conv8_2_relu
I0621 00:22:39.316952 101073 net.cpp:425] conv8_2_relu <- conv8_2
I0621 00:22:39.316957 101073 net.cpp:386] conv8_2_relu -> conv8_2 (in-place)
I0621 00:22:39.319869 101073 net.cpp:141] Setting up conv8_2_relu
I0621 00:22:39.319880 101073 net.cpp:148] Top shape: 1 256 3 3 (2304)
I0621 00:22:39.319882 101073 net.cpp:156] Memory required for data: 236938276
I0621 00:22:39.319885 101073 layer_factory.hpp:77] Creating layer conv8_2_conv8_2_relu_0_split
I0621 00:22:39.319892 101073 net.cpp:91] Creating Layer conv8_2_conv8_2_relu_0_split
I0621 00:22:39.319896 101073 net.cpp:425] conv8_2_conv8_2_relu_0_split <- conv8_2
I0621 00:22:39.319902 101073 net.cpp:399] conv8_2_conv8_2_relu_0_split -> conv8_2_conv8_2_relu_0_split_0
I0621 00:22:39.319908 101073 net.cpp:399] conv8_2_conv8_2_relu_0_split -> conv8_2_conv8_2_relu_0_split_1
I0621 00:22:39.319916 101073 net.cpp:399] conv8_2_conv8_2_relu_0_split -> conv8_2_conv8_2_relu_0_split_2
I0621 00:22:39.319921 101073 net.cpp:399] conv8_2_conv8_2_relu_0_split -> conv8_2_conv8_2_relu_0_split_3
I0621 00:22:39.319926 101073 net.cpp:399] conv8_2_conv8_2_relu_0_split -> conv8_2_conv8_2_relu_0_split_4
I0621 00:22:39.320046 101073 net.cpp:141] Setting up conv8_2_conv8_2_relu_0_split
I0621 00:22:39.320053 101073 net.cpp:148] Top shape: 1 256 3 3 (2304)
I0621 00:22:39.320056 101073 net.cpp:148] Top shape: 1 256 3 3 (2304)
I0621 00:22:39.320060 101073 net.cpp:148] Top shape: 1 256 3 3 (2304)
I0621 00:22:39.320062 101073 net.cpp:148] Top shape: 1 256 3 3 (2304)
I0621 00:22:39.320065 101073 net.cpp:148] Top shape: 1 256 3 3 (2304)
I0621 00:22:39.320066 101073 net.cpp:156] Memory required for data: 236984356
I0621 00:22:39.320070 101073 layer_factory.hpp:77] Creating layer pool6
I0621 00:22:39.320076 101073 net.cpp:91] Creating Layer pool6
I0621 00:22:39.320080 101073 net.cpp:425] pool6 <- conv8_2_conv8_2_relu_0_split_0
I0621 00:22:39.320086 101073 net.cpp:399] pool6 -> pool6
I0621 00:22:39.323025 101073 net.cpp:141] Setting up pool6
I0621 00:22:39.323035 101073 net.cpp:148] Top shape: 1 256 1 1 (256)
I0621 00:22:39.323037 101073 net.cpp:156] Memory required for data: 236985380
I0621 00:22:39.323041 101073 layer_factory.hpp:77] Creating layer pool6_pool6_0_split
I0621 00:22:39.323047 101073 net.cpp:91] Creating Layer pool6_pool6_0_split
I0621 00:22:39.323050 101073 net.cpp:425] pool6_pool6_0_split <- pool6
I0621 00:22:39.323055 101073 net.cpp:399] pool6_pool6_0_split -> pool6_pool6_0_split_0
I0621 00:22:39.323061 101073 net.cpp:399] pool6_pool6_0_split -> pool6_pool6_0_split_1
I0621 00:22:39.323066 101073 net.cpp:399] pool6_pool6_0_split -> pool6_pool6_0_split_2
I0621 00:22:39.323074 101073 net.cpp:399] pool6_pool6_0_split -> pool6_pool6_0_split_3
I0621 00:22:39.323149 101073 net.cpp:141] Setting up pool6_pool6_0_split
I0621 00:22:39.323155 101073 net.cpp:148] Top shape: 1 256 1 1 (256)
I0621 00:22:39.323158 101073 net.cpp:148] Top shape: 1 256 1 1 (256)
I0621 00:22:39.323175 101073 net.cpp:148] Top shape: 1 256 1 1 (256)
I0621 00:22:39.323179 101073 net.cpp:148] Top shape: 1 256 1 1 (256)
I0621 00:22:39.323180 101073 net.cpp:156] Memory required for data: 236989476
I0621 00:22:39.323184 101073 layer_factory.hpp:77] Creating layer conv4_3_norm
I0621 00:22:39.323191 101073 net.cpp:91] Creating Layer conv4_3_norm
I0621 00:22:39.323197 101073 net.cpp:425] conv4_3_norm <- conv4_3_relu4_3_0_split_1
I0621 00:22:39.323202 101073 net.cpp:399] conv4_3_norm -> conv4_3_norm
I0621 00:22:39.323410 101073 net.cpp:141] Setting up conv4_3_norm
I0621 00:22:39.323416 101073 net.cpp:148] Top shape: 1 512 38 38 (739328)
I0621 00:22:39.323420 101073 net.cpp:156] Memory required for data: 239946788
I0621 00:22:39.323423 101073 layer_factory.hpp:77] Creating layer conv4_3_norm_conv4_3_norm_0_split
I0621 00:22:39.323428 101073 net.cpp:91] Creating Layer conv4_3_norm_conv4_3_norm_0_split
I0621 00:22:39.323431 101073 net.cpp:425] conv4_3_norm_conv4_3_norm_0_split <- conv4_3_norm
I0621 00:22:39.323436 101073 net.cpp:399] conv4_3_norm_conv4_3_norm_0_split -> conv4_3_norm_conv4_3_norm_0_split_0
I0621 00:22:39.323441 101073 net.cpp:399] conv4_3_norm_conv4_3_norm_0_split -> conv4_3_norm_conv4_3_norm_0_split_1
I0621 00:22:39.323454 101073 net.cpp:399] conv4_3_norm_conv4_3_norm_0_split -> conv4_3_norm_conv4_3_norm_0_split_2
I0621 00:22:39.323462 101073 net.cpp:399] conv4_3_norm_conv4_3_norm_0_split -> conv4_3_norm_conv4_3_norm_0_split_3
I0621 00:22:39.323536 101073 net.cpp:141] Setting up conv4_3_norm_conv4_3_norm_0_split
I0621 00:22:39.323541 101073 net.cpp:148] Top shape: 1 512 38 38 (739328)
I0621 00:22:39.323545 101073 net.cpp:148] Top shape: 1 512 38 38 (739328)
I0621 00:22:39.323549 101073 net.cpp:148] Top shape: 1 512 38 38 (739328)
I0621 00:22:39.323551 101073 net.cpp:148] Top shape: 1 512 38 38 (739328)
I0621 00:22:39.323554 101073 net.cpp:156] Memory required for data: 251776036
I0621 00:22:39.323556 101073 layer_factory.hpp:77] Creating layer conv4_3_norm_mbox_loc
I0621 00:22:39.323566 101073 net.cpp:91] Creating Layer conv4_3_norm_mbox_loc
I0621 00:22:39.323570 101073 net.cpp:425] conv4_3_norm_mbox_loc <- conv4_3_norm_conv4_3_norm_0_split_0
I0621 00:22:39.323576 101073 net.cpp:399] conv4_3_norm_mbox_loc -> conv4_3_norm_mbox_loc
I0621 00:22:39.332037 101073 net.cpp:141] Setting up conv4_3_norm_mbox_loc
I0621 00:22:39.332051 101073 net.cpp:148] Top shape: 1 12 38 38 (17328)
I0621 00:22:39.332054 101073 net.cpp:156] Memory required for data: 251845348
I0621 00:22:39.332061 101073 layer_factory.hpp:77] Creating layer conv4_3_norm_mbox_loc_perm
I0621 00:22:39.332069 101073 net.cpp:91] Creating Layer conv4_3_norm_mbox_loc_perm
I0621 00:22:39.332073 101073 net.cpp:425] conv4_3_norm_mbox_loc_perm <- conv4_3_norm_mbox_loc
I0621 00:22:39.332079 101073 net.cpp:399] conv4_3_norm_mbox_loc_perm -> conv4_3_norm_mbox_loc_perm
I0621 00:22:39.332217 101073 net.cpp:141] Setting up conv4_3_norm_mbox_loc_perm
I0621 00:22:39.332224 101073 net.cpp:148] Top shape: 1 38 38 12 (17328)
I0621 00:22:39.332226 101073 net.cpp:156] Memory required for data: 251914660
I0621 00:22:39.332229 101073 layer_factory.hpp:77] Creating layer conv4_3_norm_mbox_loc_flat
I0621 00:22:39.332237 101073 net.cpp:91] Creating Layer conv4_3_norm_mbox_loc_flat
I0621 00:22:39.332239 101073 net.cpp:425] conv4_3_norm_mbox_loc_flat <- conv4_3_norm_mbox_loc_perm
I0621 00:22:39.332244 101073 net.cpp:399] conv4_3_norm_mbox_loc_flat -> conv4_3_norm_mbox_loc_flat
I0621 00:22:39.332276 101073 net.cpp:141] Setting up conv4_3_norm_mbox_loc_flat
I0621 00:22:39.332283 101073 net.cpp:148] Top shape: 1 17328 (17328)
I0621 00:22:39.332284 101073 net.cpp:156] Memory required for data: 251983972
I0621 00:22:39.332288 101073 layer_factory.hpp:77] Creating layer conv4_3_norm_mbox_conf
I0621 00:22:39.332300 101073 net.cpp:91] Creating Layer conv4_3_norm_mbox_conf
I0621 00:22:39.332304 101073 net.cpp:425] conv4_3_norm_mbox_conf <- conv4_3_norm_conv4_3_norm_0_split_1
I0621 00:22:39.332310 101073 net.cpp:399] conv4_3_norm_mbox_conf -> conv4_3_norm_mbox_conf
I0621 00:22:39.339604 101073 net.cpp:141] Setting up conv4_3_norm_mbox_conf
I0621 00:22:39.339617 101073 net.cpp:148] Top shape: 1 36 38 38 (51984)
I0621 00:22:39.339620 101073 net.cpp:156] Memory required for data: 252191908
I0621 00:22:39.339627 101073 layer_factory.hpp:77] Creating layer conv4_3_norm_mbox_conf_perm
I0621 00:22:39.339635 101073 net.cpp:91] Creating Layer conv4_3_norm_mbox_conf_perm
I0621 00:22:39.339639 101073 net.cpp:425] conv4_3_norm_mbox_conf_perm <- conv4_3_norm_mbox_conf
I0621 00:22:39.339645 101073 net.cpp:399] conv4_3_norm_mbox_conf_perm -> conv4_3_norm_mbox_conf_perm
I0621 00:22:39.339784 101073 net.cpp:141] Setting up conv4_3_norm_mbox_conf_perm
I0621 00:22:39.339792 101073 net.cpp:148] Top shape: 1 38 38 36 (51984)
I0621 00:22:39.339793 101073 net.cpp:156] Memory required for data: 252399844
I0621 00:22:39.339797 101073 layer_factory.hpp:77] Creating layer conv4_3_norm_mbox_conf_flat
I0621 00:22:39.339803 101073 net.cpp:91] Creating Layer conv4_3_norm_mbox_conf_flat
I0621 00:22:39.339807 101073 net.cpp:425] conv4_3_norm_mbox_conf_flat <- conv4_3_norm_mbox_conf_perm
I0621 00:22:39.339812 101073 net.cpp:399] conv4_3_norm_mbox_conf_flat -> conv4_3_norm_mbox_conf_flat
I0621 00:22:39.339843 101073 net.cpp:141] Setting up conv4_3_norm_mbox_conf_flat
I0621 00:22:39.339848 101073 net.cpp:148] Top shape: 1 51984 (51984)
I0621 00:22:39.339850 101073 net.cpp:156] Memory required for data: 252607780
I0621 00:22:39.339854 101073 layer_factory.hpp:77] Creating layer conv4_3_norm_mbox_pose
I0621 00:22:39.339874 101073 net.cpp:91] Creating Layer conv4_3_norm_mbox_pose
I0621 00:22:39.339877 101073 net.cpp:425] conv4_3_norm_mbox_pose <- conv4_3_norm_conv4_3_norm_0_split_2
I0621 00:22:39.339884 101073 net.cpp:399] conv4_3_norm_mbox_pose -> conv4_3_norm_mbox_pose
I0621 00:22:39.352149 101073 net.cpp:141] Setting up conv4_3_norm_mbox_pose
I0621 00:22:39.352162 101073 net.cpp:148] Top shape: 1 24 38 38 (34656)
I0621 00:22:39.352166 101073 net.cpp:156] Memory required for data: 252746404
I0621 00:22:39.352172 101073 layer_factory.hpp:77] Creating layer conv4_3_norm_mbox_pose_perm
I0621 00:22:39.352180 101073 net.cpp:91] Creating Layer conv4_3_norm_mbox_pose_perm
I0621 00:22:39.352185 101073 net.cpp:425] conv4_3_norm_mbox_pose_perm <- conv4_3_norm_mbox_pose
I0621 00:22:39.352190 101073 net.cpp:399] conv4_3_norm_mbox_pose_perm -> conv4_3_norm_mbox_pose_perm
I0621 00:22:39.352324 101073 net.cpp:141] Setting up conv4_3_norm_mbox_pose_perm
I0621 00:22:39.352331 101073 net.cpp:148] Top shape: 1 38 38 24 (34656)
I0621 00:22:39.352334 101073 net.cpp:156] Memory required for data: 252885028
I0621 00:22:39.352336 101073 layer_factory.hpp:77] Creating layer conv4_3_norm_mbox_pose_flat
I0621 00:22:39.352344 101073 net.cpp:91] Creating Layer conv4_3_norm_mbox_pose_flat
I0621 00:22:39.352347 101073 net.cpp:425] conv4_3_norm_mbox_pose_flat <- conv4_3_norm_mbox_pose_perm
I0621 00:22:39.352352 101073 net.cpp:399] conv4_3_norm_mbox_pose_flat -> conv4_3_norm_mbox_pose_flat
I0621 00:22:39.352382 101073 net.cpp:141] Setting up conv4_3_norm_mbox_pose_flat
I0621 00:22:39.352388 101073 net.cpp:148] Top shape: 1 34656 (34656)
I0621 00:22:39.352391 101073 net.cpp:156] Memory required for data: 253023652
I0621 00:22:39.352393 101073 layer_factory.hpp:77] Creating layer conv4_3_norm_mbox_priorbox
I0621 00:22:39.352401 101073 net.cpp:91] Creating Layer conv4_3_norm_mbox_priorbox
I0621 00:22:39.352406 101073 net.cpp:425] conv4_3_norm_mbox_priorbox <- conv4_3_norm_conv4_3_norm_0_split_3
I0621 00:22:39.352411 101073 net.cpp:425] conv4_3_norm_mbox_priorbox <- data_data_0_split_1
I0621 00:22:39.352416 101073 net.cpp:399] conv4_3_norm_mbox_priorbox -> conv4_3_norm_mbox_priorbox
I0621 00:22:39.352450 101073 net.cpp:141] Setting up conv4_3_norm_mbox_priorbox
I0621 00:22:39.352458 101073 net.cpp:148] Top shape: 1 2 17328 (34656)
I0621 00:22:39.352459 101073 net.cpp:156] Memory required for data: 253162276
I0621 00:22:39.352463 101073 layer_factory.hpp:77] Creating layer fc7_mbox_loc
I0621 00:22:39.352475 101073 net.cpp:91] Creating Layer fc7_mbox_loc
I0621 00:22:39.352494 101073 net.cpp:425] fc7_mbox_loc <- fc7_relu7_0_split_1
I0621 00:22:39.352500 101073 net.cpp:399] fc7_mbox_loc -> fc7_mbox_loc
I0621 00:22:39.364315 101073 net.cpp:141] Setting up fc7_mbox_loc
I0621 00:22:39.364327 101073 net.cpp:148] Top shape: 1 24 19 19 (8664)
I0621 00:22:39.364331 101073 net.cpp:156] Memory required for data: 253196932
I0621 00:22:39.364336 101073 layer_factory.hpp:77] Creating layer fc7_mbox_loc_perm
I0621 00:22:39.364346 101073 net.cpp:91] Creating Layer fc7_mbox_loc_perm
I0621 00:22:39.364349 101073 net.cpp:425] fc7_mbox_loc_perm <- fc7_mbox_loc
I0621 00:22:39.364354 101073 net.cpp:399] fc7_mbox_loc_perm -> fc7_mbox_loc_perm
I0621 00:22:39.364476 101073 net.cpp:141] Setting up fc7_mbox_loc_perm
I0621 00:22:39.364483 101073 net.cpp:148] Top shape: 1 19 19 24 (8664)
I0621 00:22:39.364485 101073 net.cpp:156] Memory required for data: 253231588
I0621 00:22:39.364488 101073 layer_factory.hpp:77] Creating layer fc7_mbox_loc_flat
I0621 00:22:39.364493 101073 net.cpp:91] Creating Layer fc7_mbox_loc_flat
I0621 00:22:39.364496 101073 net.cpp:425] fc7_mbox_loc_flat <- fc7_mbox_loc_perm
I0621 00:22:39.364500 101073 net.cpp:399] fc7_mbox_loc_flat -> fc7_mbox_loc_flat
I0621 00:22:39.364529 101073 net.cpp:141] Setting up fc7_mbox_loc_flat
I0621 00:22:39.364534 101073 net.cpp:148] Top shape: 1 8664 (8664)
I0621 00:22:39.364537 101073 net.cpp:156] Memory required for data: 253266244
I0621 00:22:39.364540 101073 layer_factory.hpp:77] Creating layer fc7_mbox_conf
I0621 00:22:39.364554 101073 net.cpp:91] Creating Layer fc7_mbox_conf
I0621 00:22:39.364558 101073 net.cpp:425] fc7_mbox_conf <- fc7_relu7_0_split_2
I0621 00:22:39.364564 101073 net.cpp:399] fc7_mbox_conf -> fc7_mbox_conf
I0621 00:22:39.376463 101073 net.cpp:141] Setting up fc7_mbox_conf
I0621 00:22:39.376477 101073 net.cpp:148] Top shape: 1 72 19 19 (25992)
I0621 00:22:39.376479 101073 net.cpp:156] Memory required for data: 253370212
I0621 00:22:39.376485 101073 layer_factory.hpp:77] Creating layer fc7_mbox_conf_perm
I0621 00:22:39.376492 101073 net.cpp:91] Creating Layer fc7_mbox_conf_perm
I0621 00:22:39.376494 101073 net.cpp:425] fc7_mbox_conf_perm <- fc7_mbox_conf
I0621 00:22:39.376500 101073 net.cpp:399] fc7_mbox_conf_perm -> fc7_mbox_conf_perm
I0621 00:22:39.376642 101073 net.cpp:141] Setting up fc7_mbox_conf_perm
I0621 00:22:39.376651 101073 net.cpp:148] Top shape: 1 19 19 72 (25992)
I0621 00:22:39.376652 101073 net.cpp:156] Memory required for data: 253474180
I0621 00:22:39.376657 101073 layer_factory.hpp:77] Creating layer fc7_mbox_conf_flat
I0621 00:22:39.376662 101073 net.cpp:91] Creating Layer fc7_mbox_conf_flat
I0621 00:22:39.376665 101073 net.cpp:425] fc7_mbox_conf_flat <- fc7_mbox_conf_perm
I0621 00:22:39.376672 101073 net.cpp:399] fc7_mbox_conf_flat -> fc7_mbox_conf_flat
I0621 00:22:39.376701 101073 net.cpp:141] Setting up fc7_mbox_conf_flat
I0621 00:22:39.376708 101073 net.cpp:148] Top shape: 1 25992 (25992)
I0621 00:22:39.376710 101073 net.cpp:156] Memory required for data: 253578148
I0621 00:22:39.376713 101073 layer_factory.hpp:77] Creating layer fc7_mbox_pose
I0621 00:22:39.376725 101073 net.cpp:91] Creating Layer fc7_mbox_pose
I0621 00:22:39.376729 101073 net.cpp:425] fc7_mbox_pose <- fc7_relu7_0_split_3
I0621 00:22:39.376734 101073 net.cpp:399] fc7_mbox_pose -> fc7_mbox_pose
I0621 00:22:39.388610 101073 net.cpp:141] Setting up fc7_mbox_pose
I0621 00:22:39.388627 101073 net.cpp:148] Top shape: 1 48 19 19 (17328)
I0621 00:22:39.388630 101073 net.cpp:156] Memory required for data: 253647460
I0621 00:22:39.388636 101073 layer_factory.hpp:77] Creating layer fc7_mbox_pose_perm
I0621 00:22:39.388644 101073 net.cpp:91] Creating Layer fc7_mbox_pose_perm
I0621 00:22:39.388648 101073 net.cpp:425] fc7_mbox_pose_perm <- fc7_mbox_pose
I0621 00:22:39.388655 101073 net.cpp:399] fc7_mbox_pose_perm -> fc7_mbox_pose_perm
I0621 00:22:39.388793 101073 net.cpp:141] Setting up fc7_mbox_pose_perm
I0621 00:22:39.388802 101073 net.cpp:148] Top shape: 1 19 19 48 (17328)
I0621 00:22:39.388804 101073 net.cpp:156] Memory required for data: 253716772
I0621 00:22:39.388823 101073 layer_factory.hpp:77] Creating layer fc7_mbox_pose_flat
I0621 00:22:39.388833 101073 net.cpp:91] Creating Layer fc7_mbox_pose_flat
I0621 00:22:39.388839 101073 net.cpp:425] fc7_mbox_pose_flat <- fc7_mbox_pose_perm
I0621 00:22:39.388847 101073 net.cpp:399] fc7_mbox_pose_flat -> fc7_mbox_pose_flat
I0621 00:22:39.388895 101073 net.cpp:141] Setting up fc7_mbox_pose_flat
I0621 00:22:39.388901 101073 net.cpp:148] Top shape: 1 17328 (17328)
I0621 00:22:39.388906 101073 net.cpp:156] Memory required for data: 253786084
I0621 00:22:39.388909 101073 layer_factory.hpp:77] Creating layer fc7_mbox_priorbox
I0621 00:22:39.388918 101073 net.cpp:91] Creating Layer fc7_mbox_priorbox
I0621 00:22:39.388922 101073 net.cpp:425] fc7_mbox_priorbox <- fc7_relu7_0_split_4
I0621 00:22:39.388926 101073 net.cpp:425] fc7_mbox_priorbox <- data_data_0_split_2
I0621 00:22:39.388931 101073 net.cpp:399] fc7_mbox_priorbox -> fc7_mbox_priorbox
I0621 00:22:39.388967 101073 net.cpp:141] Setting up fc7_mbox_priorbox
I0621 00:22:39.388974 101073 net.cpp:148] Top shape: 1 2 8664 (17328)
I0621 00:22:39.388977 101073 net.cpp:156] Memory required for data: 253855396
I0621 00:22:39.388979 101073 layer_factory.hpp:77] Creating layer conv6_2_mbox_loc
I0621 00:22:39.388991 101073 net.cpp:91] Creating Layer conv6_2_mbox_loc
I0621 00:22:39.388995 101073 net.cpp:425] conv6_2_mbox_loc <- conv6_2_conv6_2_relu_0_split_1
I0621 00:22:39.389001 101073 net.cpp:399] conv6_2_mbox_loc -> conv6_2_mbox_loc
I0621 00:22:39.400751 101073 net.cpp:141] Setting up conv6_2_mbox_loc
I0621 00:22:39.400764 101073 net.cpp:148] Top shape: 1 24 10 10 (2400)
I0621 00:22:39.400768 101073 net.cpp:156] Memory required for data: 253864996
I0621 00:22:39.400774 101073 layer_factory.hpp:77] Creating layer conv6_2_mbox_loc_perm
I0621 00:22:39.400781 101073 net.cpp:91] Creating Layer conv6_2_mbox_loc_perm
I0621 00:22:39.400785 101073 net.cpp:425] conv6_2_mbox_loc_perm <- conv6_2_mbox_loc
I0621 00:22:39.400790 101073 net.cpp:399] conv6_2_mbox_loc_perm -> conv6_2_mbox_loc_perm
I0621 00:22:39.400928 101073 net.cpp:141] Setting up conv6_2_mbox_loc_perm
I0621 00:22:39.400935 101073 net.cpp:148] Top shape: 1 10 10 24 (2400)
I0621 00:22:39.400938 101073 net.cpp:156] Memory required for data: 253874596
I0621 00:22:39.400941 101073 layer_factory.hpp:77] Creating layer conv6_2_mbox_loc_flat
I0621 00:22:39.400948 101073 net.cpp:91] Creating Layer conv6_2_mbox_loc_flat
I0621 00:22:39.400950 101073 net.cpp:425] conv6_2_mbox_loc_flat <- conv6_2_mbox_loc_perm
I0621 00:22:39.400955 101073 net.cpp:399] conv6_2_mbox_loc_flat -> conv6_2_mbox_loc_flat
I0621 00:22:39.400987 101073 net.cpp:141] Setting up conv6_2_mbox_loc_flat
I0621 00:22:39.400993 101073 net.cpp:148] Top shape: 1 2400 (2400)
I0621 00:22:39.400995 101073 net.cpp:156] Memory required for data: 253884196
I0621 00:22:39.400998 101073 layer_factory.hpp:77] Creating layer conv6_2_mbox_conf
I0621 00:22:39.401008 101073 net.cpp:91] Creating Layer conv6_2_mbox_conf
I0621 00:22:39.401013 101073 net.cpp:425] conv6_2_mbox_conf <- conv6_2_conv6_2_relu_0_split_2
I0621 00:22:39.401020 101073 net.cpp:399] conv6_2_mbox_conf -> conv6_2_mbox_conf
I0621 00:22:39.412906 101073 net.cpp:141] Setting up conv6_2_mbox_conf
I0621 00:22:39.412919 101073 net.cpp:148] Top shape: 1 72 10 10 (7200)
I0621 00:22:39.412922 101073 net.cpp:156] Memory required for data: 253912996
I0621 00:22:39.412927 101073 layer_factory.hpp:77] Creating layer conv6_2_mbox_conf_perm
I0621 00:22:39.412936 101073 net.cpp:91] Creating Layer conv6_2_mbox_conf_perm
I0621 00:22:39.412940 101073 net.cpp:425] conv6_2_mbox_conf_perm <- conv6_2_mbox_conf
I0621 00:22:39.412946 101073 net.cpp:399] conv6_2_mbox_conf_perm -> conv6_2_mbox_conf_perm
I0621 00:22:39.413085 101073 net.cpp:141] Setting up conv6_2_mbox_conf_perm
I0621 00:22:39.413092 101073 net.cpp:148] Top shape: 1 10 10 72 (7200)
I0621 00:22:39.413095 101073 net.cpp:156] Memory required for data: 253941796
I0621 00:22:39.413099 101073 layer_factory.hpp:77] Creating layer conv6_2_mbox_conf_flat
I0621 00:22:39.413105 101073 net.cpp:91] Creating Layer conv6_2_mbox_conf_flat
I0621 00:22:39.413123 101073 net.cpp:425] conv6_2_mbox_conf_flat <- conv6_2_mbox_conf_perm
I0621 00:22:39.413130 101073 net.cpp:399] conv6_2_mbox_conf_flat -> conv6_2_mbox_conf_flat
I0621 00:22:39.413164 101073 net.cpp:141] Setting up conv6_2_mbox_conf_flat
I0621 00:22:39.413172 101073 net.cpp:148] Top shape: 1 7200 (7200)
I0621 00:22:39.413175 101073 net.cpp:156] Memory required for data: 253970596
I0621 00:22:39.413178 101073 layer_factory.hpp:77] Creating layer conv6_2_mbox_pose
I0621 00:22:39.413188 101073 net.cpp:91] Creating Layer conv6_2_mbox_pose
I0621 00:22:39.413193 101073 net.cpp:425] conv6_2_mbox_pose <- conv6_2_conv6_2_relu_0_split_3
I0621 00:22:39.413199 101073 net.cpp:399] conv6_2_mbox_pose -> conv6_2_mbox_pose
I0621 00:22:39.425078 101073 net.cpp:141] Setting up conv6_2_mbox_pose
I0621 00:22:39.425091 101073 net.cpp:148] Top shape: 1 48 10 10 (4800)
I0621 00:22:39.425094 101073 net.cpp:156] Memory required for data: 253989796
I0621 00:22:39.425099 101073 layer_factory.hpp:77] Creating layer conv6_2_mbox_pose_perm
I0621 00:22:39.425108 101073 net.cpp:91] Creating Layer conv6_2_mbox_pose_perm
I0621 00:22:39.425112 101073 net.cpp:425] conv6_2_mbox_pose_perm <- conv6_2_mbox_pose
I0621 00:22:39.425118 101073 net.cpp:399] conv6_2_mbox_pose_perm -> conv6_2_mbox_pose_perm
I0621 00:22:39.425257 101073 net.cpp:141] Setting up conv6_2_mbox_pose_perm
I0621 00:22:39.425266 101073 net.cpp:148] Top shape: 1 10 10 48 (4800)
I0621 00:22:39.425268 101073 net.cpp:156] Memory required for data: 254008996
I0621 00:22:39.425273 101073 layer_factory.hpp:77] Creating layer conv6_2_mbox_pose_flat
I0621 00:22:39.425281 101073 net.cpp:91] Creating Layer conv6_2_mbox_pose_flat
I0621 00:22:39.425283 101073 net.cpp:425] conv6_2_mbox_pose_flat <- conv6_2_mbox_pose_perm
I0621 00:22:39.425288 101073 net.cpp:399] conv6_2_mbox_pose_flat -> conv6_2_mbox_pose_flat
I0621 00:22:39.425320 101073 net.cpp:141] Setting up conv6_2_mbox_pose_flat
I0621 00:22:39.425326 101073 net.cpp:148] Top shape: 1 4800 (4800)
I0621 00:22:39.425329 101073 net.cpp:156] Memory required for data: 254028196
I0621 00:22:39.425333 101073 layer_factory.hpp:77] Creating layer conv6_2_mbox_priorbox
I0621 00:22:39.425341 101073 net.cpp:91] Creating Layer conv6_2_mbox_priorbox
I0621 00:22:39.425344 101073 net.cpp:425] conv6_2_mbox_priorbox <- conv6_2_conv6_2_relu_0_split_4
I0621 00:22:39.425349 101073 net.cpp:425] conv6_2_mbox_priorbox <- data_data_0_split_3
I0621 00:22:39.425354 101073 net.cpp:399] conv6_2_mbox_priorbox -> conv6_2_mbox_priorbox
I0621 00:22:39.425389 101073 net.cpp:141] Setting up conv6_2_mbox_priorbox
I0621 00:22:39.425395 101073 net.cpp:148] Top shape: 1 2 2400 (4800)
I0621 00:22:39.425396 101073 net.cpp:156] Memory required for data: 254047396
I0621 00:22:39.425401 101073 layer_factory.hpp:77] Creating layer conv7_2_mbox_loc
I0621 00:22:39.425411 101073 net.cpp:91] Creating Layer conv7_2_mbox_loc
I0621 00:22:39.425416 101073 net.cpp:425] conv7_2_mbox_loc <- conv7_2_conv7_2_relu_0_split_1
I0621 00:22:39.425423 101073 net.cpp:399] conv7_2_mbox_loc -> conv7_2_mbox_loc
I0621 00:22:39.437247 101073 net.cpp:141] Setting up conv7_2_mbox_loc
I0621 00:22:39.437259 101073 net.cpp:148] Top shape: 1 24 5 5 (600)
I0621 00:22:39.437263 101073 net.cpp:156] Memory required for data: 254049796
I0621 00:22:39.437268 101073 layer_factory.hpp:77] Creating layer conv7_2_mbox_loc_perm
I0621 00:22:39.437275 101073 net.cpp:91] Creating Layer conv7_2_mbox_loc_perm
I0621 00:22:39.437279 101073 net.cpp:425] conv7_2_mbox_loc_perm <- conv7_2_mbox_loc
I0621 00:22:39.437285 101073 net.cpp:399] conv7_2_mbox_loc_perm -> conv7_2_mbox_loc_perm
I0621 00:22:39.437430 101073 net.cpp:141] Setting up conv7_2_mbox_loc_perm
I0621 00:22:39.437438 101073 net.cpp:148] Top shape: 1 5 5 24 (600)
I0621 00:22:39.437439 101073 net.cpp:156] Memory required for data: 254052196
I0621 00:22:39.437443 101073 layer_factory.hpp:77] Creating layer conv7_2_mbox_loc_flat
I0621 00:22:39.437450 101073 net.cpp:91] Creating Layer conv7_2_mbox_loc_flat
I0621 00:22:39.437454 101073 net.cpp:425] conv7_2_mbox_loc_flat <- conv7_2_mbox_loc_perm
I0621 00:22:39.437474 101073 net.cpp:399] conv7_2_mbox_loc_flat -> conv7_2_mbox_loc_flat
I0621 00:22:39.437508 101073 net.cpp:141] Setting up conv7_2_mbox_loc_flat
I0621 00:22:39.437515 101073 net.cpp:148] Top shape: 1 600 (600)
I0621 00:22:39.437517 101073 net.cpp:156] Memory required for data: 254054596
I0621 00:22:39.437521 101073 layer_factory.hpp:77] Creating layer conv7_2_mbox_conf
I0621 00:22:39.437530 101073 net.cpp:91] Creating Layer conv7_2_mbox_conf
I0621 00:22:39.437535 101073 net.cpp:425] conv7_2_mbox_conf <- conv7_2_conv7_2_relu_0_split_2
I0621 00:22:39.437541 101073 net.cpp:399] conv7_2_mbox_conf -> conv7_2_mbox_conf
I0621 00:22:39.449388 101073 net.cpp:141] Setting up conv7_2_mbox_conf
I0621 00:22:39.449403 101073 net.cpp:148] Top shape: 1 72 5 5 (1800)
I0621 00:22:39.449405 101073 net.cpp:156] Memory required for data: 254061796
I0621 00:22:39.449424 101073 layer_factory.hpp:77] Creating layer conv7_2_mbox_conf_perm
I0621 00:22:39.449432 101073 net.cpp:91] Creating Layer conv7_2_mbox_conf_perm
I0621 00:22:39.449439 101073 net.cpp:425] conv7_2_mbox_conf_perm <- conv7_2_mbox_conf
I0621 00:22:39.449445 101073 net.cpp:399] conv7_2_mbox_conf_perm -> conv7_2_mbox_conf_perm
I0621 00:22:39.449585 101073 net.cpp:141] Setting up conv7_2_mbox_conf_perm
I0621 00:22:39.449592 101073 net.cpp:148] Top shape: 1 5 5 72 (1800)
I0621 00:22:39.449595 101073 net.cpp:156] Memory required for data: 254068996
I0621 00:22:39.449599 101073 layer_factory.hpp:77] Creating layer conv7_2_mbox_conf_flat
I0621 00:22:39.449605 101073 net.cpp:91] Creating Layer conv7_2_mbox_conf_flat
I0621 00:22:39.449609 101073 net.cpp:425] conv7_2_mbox_conf_flat <- conv7_2_mbox_conf_perm
I0621 00:22:39.449615 101073 net.cpp:399] conv7_2_mbox_conf_flat -> conv7_2_mbox_conf_flat
I0621 00:22:39.449645 101073 net.cpp:141] Setting up conv7_2_mbox_conf_flat
I0621 00:22:39.449651 101073 net.cpp:148] Top shape: 1 1800 (1800)
I0621 00:22:39.449654 101073 net.cpp:156] Memory required for data: 254076196
I0621 00:22:39.449657 101073 layer_factory.hpp:77] Creating layer conv7_2_mbox_pose
I0621 00:22:39.449669 101073 net.cpp:91] Creating Layer conv7_2_mbox_pose
I0621 00:22:39.449673 101073 net.cpp:425] conv7_2_mbox_pose <- conv7_2_conv7_2_relu_0_split_3
I0621 00:22:39.449679 101073 net.cpp:399] conv7_2_mbox_pose -> conv7_2_mbox_pose
I0621 00:22:39.460450 101073 net.cpp:141] Setting up conv7_2_mbox_pose
I0621 00:22:39.460464 101073 net.cpp:148] Top shape: 1 48 5 5 (1200)
I0621 00:22:39.460467 101073 net.cpp:156] Memory required for data: 254080996
I0621 00:22:39.460474 101073 layer_factory.hpp:77] Creating layer conv7_2_mbox_pose_perm
I0621 00:22:39.460480 101073 net.cpp:91] Creating Layer conv7_2_mbox_pose_perm
I0621 00:22:39.460484 101073 net.cpp:425] conv7_2_mbox_pose_perm <- conv7_2_mbox_pose
I0621 00:22:39.460490 101073 net.cpp:399] conv7_2_mbox_pose_perm -> conv7_2_mbox_pose_perm
I0621 00:22:39.460642 101073 net.cpp:141] Setting up conv7_2_mbox_pose_perm
I0621 00:22:39.460650 101073 net.cpp:148] Top shape: 1 5 5 48 (1200)
I0621 00:22:39.460654 101073 net.cpp:156] Memory required for data: 254085796
I0621 00:22:39.460655 101073 layer_factory.hpp:77] Creating layer conv7_2_mbox_pose_flat
I0621 00:22:39.460661 101073 net.cpp:91] Creating Layer conv7_2_mbox_pose_flat
I0621 00:22:39.460664 101073 net.cpp:425] conv7_2_mbox_pose_flat <- conv7_2_mbox_pose_perm
I0621 00:22:39.460669 101073 net.cpp:399] conv7_2_mbox_pose_flat -> conv7_2_mbox_pose_flat
I0621 00:22:39.460702 101073 net.cpp:141] Setting up conv7_2_mbox_pose_flat
I0621 00:22:39.460710 101073 net.cpp:148] Top shape: 1 1200 (1200)
I0621 00:22:39.460712 101073 net.cpp:156] Memory required for data: 254090596
I0621 00:22:39.460716 101073 layer_factory.hpp:77] Creating layer conv7_2_mbox_priorbox
I0621 00:22:39.460724 101073 net.cpp:91] Creating Layer conv7_2_mbox_priorbox
I0621 00:22:39.460728 101073 net.cpp:425] conv7_2_mbox_priorbox <- conv7_2_conv7_2_relu_0_split_4
I0621 00:22:39.460732 101073 net.cpp:425] conv7_2_mbox_priorbox <- data_data_0_split_4
I0621 00:22:39.460752 101073 net.cpp:399] conv7_2_mbox_priorbox -> conv7_2_mbox_priorbox
I0621 00:22:39.460793 101073 net.cpp:141] Setting up conv7_2_mbox_priorbox
I0621 00:22:39.460799 101073 net.cpp:148] Top shape: 1 2 600 (1200)
I0621 00:22:39.460803 101073 net.cpp:156] Memory required for data: 254095396
I0621 00:22:39.460804 101073 layer_factory.hpp:77] Creating layer conv8_2_mbox_loc
I0621 00:22:39.460814 101073 net.cpp:91] Creating Layer conv8_2_mbox_loc
I0621 00:22:39.460819 101073 net.cpp:425] conv8_2_mbox_loc <- conv8_2_conv8_2_relu_0_split_1
I0621 00:22:39.460825 101073 net.cpp:399] conv8_2_mbox_loc -> conv8_2_mbox_loc
I0621 00:22:39.481338 101073 net.cpp:141] Setting up conv8_2_mbox_loc
I0621 00:22:39.481354 101073 net.cpp:148] Top shape: 1 24 3 3 (216)
I0621 00:22:39.481358 101073 net.cpp:156] Memory required for data: 254096260
I0621 00:22:39.481364 101073 layer_factory.hpp:77] Creating layer conv8_2_mbox_loc_perm
I0621 00:22:39.481374 101073 net.cpp:91] Creating Layer conv8_2_mbox_loc_perm
I0621 00:22:39.481377 101073 net.cpp:425] conv8_2_mbox_loc_perm <- conv8_2_mbox_loc
I0621 00:22:39.481384 101073 net.cpp:399] conv8_2_mbox_loc_perm -> conv8_2_mbox_loc_perm
I0621 00:22:39.481525 101073 net.cpp:141] Setting up conv8_2_mbox_loc_perm
I0621 00:22:39.481533 101073 net.cpp:148] Top shape: 1 3 3 24 (216)
I0621 00:22:39.481534 101073 net.cpp:156] Memory required for data: 254097124
I0621 00:22:39.481537 101073 layer_factory.hpp:77] Creating layer conv8_2_mbox_loc_flat
I0621 00:22:39.481544 101073 net.cpp:91] Creating Layer conv8_2_mbox_loc_flat
I0621 00:22:39.481546 101073 net.cpp:425] conv8_2_mbox_loc_flat <- conv8_2_mbox_loc_perm
I0621 00:22:39.481552 101073 net.cpp:399] conv8_2_mbox_loc_flat -> conv8_2_mbox_loc_flat
I0621 00:22:39.481582 101073 net.cpp:141] Setting up conv8_2_mbox_loc_flat
I0621 00:22:39.481590 101073 net.cpp:148] Top shape: 1 216 (216)
I0621 00:22:39.481593 101073 net.cpp:156] Memory required for data: 254097988
I0621 00:22:39.481597 101073 layer_factory.hpp:77] Creating layer conv8_2_mbox_conf
I0621 00:22:39.481607 101073 net.cpp:91] Creating Layer conv8_2_mbox_conf
I0621 00:22:39.481611 101073 net.cpp:425] conv8_2_mbox_conf <- conv8_2_conv8_2_relu_0_split_2
I0621 00:22:39.481617 101073 net.cpp:399] conv8_2_mbox_conf -> conv8_2_mbox_conf
I0621 00:22:39.501412 101073 net.cpp:141] Setting up conv8_2_mbox_conf
I0621 00:22:39.501440 101073 net.cpp:148] Top shape: 1 72 3 3 (648)
I0621 00:22:39.501443 101073 net.cpp:156] Memory required for data: 254100580
I0621 00:22:39.501453 101073 layer_factory.hpp:77] Creating layer conv8_2_mbox_conf_perm
I0621 00:22:39.501466 101073 net.cpp:91] Creating Layer conv8_2_mbox_conf_perm
I0621 00:22:39.501472 101073 net.cpp:425] conv8_2_mbox_conf_perm <- conv8_2_mbox_conf
I0621 00:22:39.501479 101073 net.cpp:399] conv8_2_mbox_conf_perm -> conv8_2_mbox_conf_perm
I0621 00:22:39.501627 101073 net.cpp:141] Setting up conv8_2_mbox_conf_perm
I0621 00:22:39.501634 101073 net.cpp:148] Top shape: 1 3 3 72 (648)
I0621 00:22:39.501636 101073 net.cpp:156] Memory required for data: 254103172
I0621 00:22:39.501639 101073 layer_factory.hpp:77] Creating layer conv8_2_mbox_conf_flat
I0621 00:22:39.501647 101073 net.cpp:91] Creating Layer conv8_2_mbox_conf_flat
I0621 00:22:39.501651 101073 net.cpp:425] conv8_2_mbox_conf_flat <- conv8_2_mbox_conf_perm
I0621 00:22:39.501657 101073 net.cpp:399] conv8_2_mbox_conf_flat -> conv8_2_mbox_conf_flat
I0621 00:22:39.501689 101073 net.cpp:141] Setting up conv8_2_mbox_conf_flat
I0621 00:22:39.501696 101073 net.cpp:148] Top shape: 1 648 (648)
I0621 00:22:39.501699 101073 net.cpp:156] Memory required for data: 254105764
I0621 00:22:39.501704 101073 layer_factory.hpp:77] Creating layer conv8_2_mbox_pose
I0621 00:22:39.501718 101073 net.cpp:91] Creating Layer conv8_2_mbox_pose
I0621 00:22:39.501723 101073 net.cpp:425] conv8_2_mbox_pose <- conv8_2_conv8_2_relu_0_split_3
I0621 00:22:39.501729 101073 net.cpp:399] conv8_2_mbox_pose -> conv8_2_mbox_pose
I0621 00:22:39.504776 101073 net.cpp:141] Setting up conv8_2_mbox_pose
I0621 00:22:39.504791 101073 net.cpp:148] Top shape: 1 48 3 3 (432)
I0621 00:22:39.504812 101073 net.cpp:156] Memory required for data: 254107492
I0621 00:22:39.504818 101073 layer_factory.hpp:77] Creating layer conv8_2_mbox_pose_perm
I0621 00:22:39.504827 101073 net.cpp:91] Creating Layer conv8_2_mbox_pose_perm
I0621 00:22:39.504832 101073 net.cpp:425] conv8_2_mbox_pose_perm <- conv8_2_mbox_pose
I0621 00:22:39.504838 101073 net.cpp:399] conv8_2_mbox_pose_perm -> conv8_2_mbox_pose_perm
I0621 00:22:39.504978 101073 net.cpp:141] Setting up conv8_2_mbox_pose_perm
I0621 00:22:39.504986 101073 net.cpp:148] Top shape: 1 3 3 48 (432)
I0621 00:22:39.504987 101073 net.cpp:156] Memory required for data: 254109220
I0621 00:22:39.504990 101073 layer_factory.hpp:77] Creating layer conv8_2_mbox_pose_flat
I0621 00:22:39.504997 101073 net.cpp:91] Creating Layer conv8_2_mbox_pose_flat
I0621 00:22:39.504999 101073 net.cpp:425] conv8_2_mbox_pose_flat <- conv8_2_mbox_pose_perm
I0621 00:22:39.505005 101073 net.cpp:399] conv8_2_mbox_pose_flat -> conv8_2_mbox_pose_flat
I0621 00:22:39.505038 101073 net.cpp:141] Setting up conv8_2_mbox_pose_flat
I0621 00:22:39.505043 101073 net.cpp:148] Top shape: 1 432 (432)
I0621 00:22:39.505046 101073 net.cpp:156] Memory required for data: 254110948
I0621 00:22:39.505050 101073 layer_factory.hpp:77] Creating layer conv8_2_mbox_priorbox
I0621 00:22:39.505059 101073 net.cpp:91] Creating Layer conv8_2_mbox_priorbox
I0621 00:22:39.505061 101073 net.cpp:425] conv8_2_mbox_priorbox <- conv8_2_conv8_2_relu_0_split_4
I0621 00:22:39.505066 101073 net.cpp:425] conv8_2_mbox_priorbox <- data_data_0_split_5
I0621 00:22:39.505072 101073 net.cpp:399] conv8_2_mbox_priorbox -> conv8_2_mbox_priorbox
I0621 00:22:39.505108 101073 net.cpp:141] Setting up conv8_2_mbox_priorbox
I0621 00:22:39.505115 101073 net.cpp:148] Top shape: 1 2 216 (432)
I0621 00:22:39.505117 101073 net.cpp:156] Memory required for data: 254112676
I0621 00:22:39.505120 101073 layer_factory.hpp:77] Creating layer pool6_mbox_loc
I0621 00:22:39.505131 101073 net.cpp:91] Creating Layer pool6_mbox_loc
I0621 00:22:39.505136 101073 net.cpp:425] pool6_mbox_loc <- pool6_pool6_0_split_0
I0621 00:22:39.505141 101073 net.cpp:399] pool6_mbox_loc -> pool6_mbox_loc
I0621 00:22:39.509292 101073 net.cpp:141] Setting up pool6_mbox_loc
I0621 00:22:39.509305 101073 net.cpp:148] Top shape: 1 24 1 1 (24)
I0621 00:22:39.509307 101073 net.cpp:156] Memory required for data: 254112772
I0621 00:22:39.509313 101073 layer_factory.hpp:77] Creating layer pool6_mbox_loc_perm
I0621 00:22:39.509320 101073 net.cpp:91] Creating Layer pool6_mbox_loc_perm
I0621 00:22:39.509323 101073 net.cpp:425] pool6_mbox_loc_perm <- pool6_mbox_loc
I0621 00:22:39.509330 101073 net.cpp:399] pool6_mbox_loc_perm -> pool6_mbox_loc_perm
I0621 00:22:39.509469 101073 net.cpp:141] Setting up pool6_mbox_loc_perm
I0621 00:22:39.509475 101073 net.cpp:148] Top shape: 1 1 1 24 (24)
I0621 00:22:39.509479 101073 net.cpp:156] Memory required for data: 254112868
I0621 00:22:39.509480 101073 layer_factory.hpp:77] Creating layer pool6_mbox_loc_flat
I0621 00:22:39.509486 101073 net.cpp:91] Creating Layer pool6_mbox_loc_flat
I0621 00:22:39.509488 101073 net.cpp:425] pool6_mbox_loc_flat <- pool6_mbox_loc_perm
I0621 00:22:39.509495 101073 net.cpp:399] pool6_mbox_loc_flat -> pool6_mbox_loc_flat
I0621 00:22:39.509527 101073 net.cpp:141] Setting up pool6_mbox_loc_flat
I0621 00:22:39.509533 101073 net.cpp:148] Top shape: 1 24 (24)
I0621 00:22:39.509536 101073 net.cpp:156] Memory required for data: 254112964
I0621 00:22:39.509538 101073 layer_factory.hpp:77] Creating layer pool6_mbox_conf
I0621 00:22:39.509549 101073 net.cpp:91] Creating Layer pool6_mbox_conf
I0621 00:22:39.509554 101073 net.cpp:425] pool6_mbox_conf <- pool6_pool6_0_split_1
I0621 00:22:39.509560 101073 net.cpp:399] pool6_mbox_conf -> pool6_mbox_conf
I0621 00:22:39.514178 101073 net.cpp:141] Setting up pool6_mbox_conf
I0621 00:22:39.514190 101073 net.cpp:148] Top shape: 1 72 1 1 (72)
I0621 00:22:39.514194 101073 net.cpp:156] Memory required for data: 254113252
I0621 00:22:39.514199 101073 layer_factory.hpp:77] Creating layer pool6_mbox_conf_perm
I0621 00:22:39.514220 101073 net.cpp:91] Creating Layer pool6_mbox_conf_perm
I0621 00:22:39.514225 101073 net.cpp:425] pool6_mbox_conf_perm <- pool6_mbox_conf
I0621 00:22:39.514231 101073 net.cpp:399] pool6_mbox_conf_perm -> pool6_mbox_conf_perm
I0621 00:22:39.514372 101073 net.cpp:141] Setting up pool6_mbox_conf_perm
I0621 00:22:39.514380 101073 net.cpp:148] Top shape: 1 1 1 72 (72)
I0621 00:22:39.514382 101073 net.cpp:156] Memory required for data: 254113540
I0621 00:22:39.514386 101073 layer_factory.hpp:77] Creating layer pool6_mbox_conf_flat
I0621 00:22:39.514391 101073 net.cpp:91] Creating Layer pool6_mbox_conf_flat
I0621 00:22:39.514395 101073 net.cpp:425] pool6_mbox_conf_flat <- pool6_mbox_conf_perm
I0621 00:22:39.514401 101073 net.cpp:399] pool6_mbox_conf_flat -> pool6_mbox_conf_flat
I0621 00:22:39.514436 101073 net.cpp:141] Setting up pool6_mbox_conf_flat
I0621 00:22:39.514442 101073 net.cpp:148] Top shape: 1 72 (72)
I0621 00:22:39.514446 101073 net.cpp:156] Memory required for data: 254113828
I0621 00:22:39.514449 101073 layer_factory.hpp:77] Creating layer pool6_mbox_pose
I0621 00:22:39.514459 101073 net.cpp:91] Creating Layer pool6_mbox_pose
I0621 00:22:39.514463 101073 net.cpp:425] pool6_mbox_pose <- pool6_pool6_0_split_2
I0621 00:22:39.514469 101073 net.cpp:399] pool6_mbox_pose -> pool6_mbox_pose
I0621 00:22:39.518445 101073 net.cpp:141] Setting up pool6_mbox_pose
I0621 00:22:39.518458 101073 net.cpp:148] Top shape: 1 48 1 1 (48)
I0621 00:22:39.518461 101073 net.cpp:156] Memory required for data: 254114020
I0621 00:22:39.518467 101073 layer_factory.hpp:77] Creating layer pool6_mbox_pose_perm
I0621 00:22:39.518476 101073 net.cpp:91] Creating Layer pool6_mbox_pose_perm
I0621 00:22:39.518479 101073 net.cpp:425] pool6_mbox_pose_perm <- pool6_mbox_pose
I0621 00:22:39.518486 101073 net.cpp:399] pool6_mbox_pose_perm -> pool6_mbox_pose_perm
I0621 00:22:39.518630 101073 net.cpp:141] Setting up pool6_mbox_pose_perm
I0621 00:22:39.518636 101073 net.cpp:148] Top shape: 1 1 1 48 (48)
I0621 00:22:39.518638 101073 net.cpp:156] Memory required for data: 254114212
I0621 00:22:39.518641 101073 layer_factory.hpp:77] Creating layer pool6_mbox_pose_flat
I0621 00:22:39.518647 101073 net.cpp:91] Creating Layer pool6_mbox_pose_flat
I0621 00:22:39.518651 101073 net.cpp:425] pool6_mbox_pose_flat <- pool6_mbox_pose_perm
I0621 00:22:39.518656 101073 net.cpp:399] pool6_mbox_pose_flat -> pool6_mbox_pose_flat
I0621 00:22:39.518689 101073 net.cpp:141] Setting up pool6_mbox_pose_flat
I0621 00:22:39.518694 101073 net.cpp:148] Top shape: 1 48 (48)
I0621 00:22:39.518697 101073 net.cpp:156] Memory required for data: 254114404
I0621 00:22:39.518699 101073 layer_factory.hpp:77] Creating layer pool6_mbox_priorbox
I0621 00:22:39.518707 101073 net.cpp:91] Creating Layer pool6_mbox_priorbox
I0621 00:22:39.518710 101073 net.cpp:425] pool6_mbox_priorbox <- pool6_pool6_0_split_3
I0621 00:22:39.518714 101073 net.cpp:425] pool6_mbox_priorbox <- data_data_0_split_6
I0621 00:22:39.518721 101073 net.cpp:399] pool6_mbox_priorbox -> pool6_mbox_priorbox
I0621 00:22:39.518755 101073 net.cpp:141] Setting up pool6_mbox_priorbox
I0621 00:22:39.518761 101073 net.cpp:148] Top shape: 1 2 24 (48)
I0621 00:22:39.518764 101073 net.cpp:156] Memory required for data: 254114596
I0621 00:22:39.518766 101073 layer_factory.hpp:77] Creating layer mbox_loc
I0621 00:22:39.518776 101073 net.cpp:91] Creating Layer mbox_loc
I0621 00:22:39.518781 101073 net.cpp:425] mbox_loc <- conv4_3_norm_mbox_loc_flat
I0621 00:22:39.518786 101073 net.cpp:425] mbox_loc <- fc7_mbox_loc_flat
I0621 00:22:39.518791 101073 net.cpp:425] mbox_loc <- conv6_2_mbox_loc_flat
I0621 00:22:39.518797 101073 net.cpp:425] mbox_loc <- conv7_2_mbox_loc_flat
I0621 00:22:39.518800 101073 net.cpp:425] mbox_loc <- conv8_2_mbox_loc_flat
I0621 00:22:39.518803 101073 net.cpp:425] mbox_loc <- pool6_mbox_loc_flat
I0621 00:22:39.518808 101073 net.cpp:399] mbox_loc -> mbox_loc
I0621 00:22:39.518842 101073 net.cpp:141] Setting up mbox_loc
I0621 00:22:39.518848 101073 net.cpp:148] Top shape: 1 29232 (29232)
I0621 00:22:39.518862 101073 net.cpp:156] Memory required for data: 254231524
I0621 00:22:39.518864 101073 layer_factory.hpp:77] Creating layer mbox_conf
I0621 00:22:39.518872 101073 net.cpp:91] Creating Layer mbox_conf
I0621 00:22:39.518875 101073 net.cpp:425] mbox_conf <- conv4_3_norm_mbox_conf_flat
I0621 00:22:39.518880 101073 net.cpp:425] mbox_conf <- fc7_mbox_conf_flat
I0621 00:22:39.518885 101073 net.cpp:425] mbox_conf <- conv6_2_mbox_conf_flat
I0621 00:22:39.518890 101073 net.cpp:425] mbox_conf <- conv7_2_mbox_conf_flat
I0621 00:22:39.518894 101073 net.cpp:425] mbox_conf <- conv8_2_mbox_conf_flat
I0621 00:22:39.518898 101073 net.cpp:425] mbox_conf <- pool6_mbox_conf_flat
I0621 00:22:39.518903 101073 net.cpp:399] mbox_conf -> mbox_conf
I0621 00:22:39.518954 101073 net.cpp:141] Setting up mbox_conf
I0621 00:22:39.518961 101073 net.cpp:148] Top shape: 1 87696 (87696)
I0621 00:22:39.518965 101073 net.cpp:156] Memory required for data: 254582308
I0621 00:22:39.518968 101073 layer_factory.hpp:77] Creating layer mbox_pose
I0621 00:22:39.518973 101073 net.cpp:91] Creating Layer mbox_pose
I0621 00:22:39.518977 101073 net.cpp:425] mbox_pose <- conv4_3_norm_mbox_pose_flat
I0621 00:22:39.518982 101073 net.cpp:425] mbox_pose <- fc7_mbox_pose_flat
I0621 00:22:39.518987 101073 net.cpp:425] mbox_pose <- conv6_2_mbox_pose_flat
I0621 00:22:39.518992 101073 net.cpp:425] mbox_pose <- conv7_2_mbox_pose_flat
I0621 00:22:39.518996 101073 net.cpp:425] mbox_pose <- conv8_2_mbox_pose_flat
I0621 00:22:39.518998 101073 net.cpp:425] mbox_pose <- pool6_mbox_pose_flat
I0621 00:22:39.519004 101073 net.cpp:399] mbox_pose -> mbox_pose
I0621 00:22:39.519038 101073 net.cpp:141] Setting up mbox_pose
I0621 00:22:39.519047 101073 net.cpp:148] Top shape: 1 58464 (58464)
I0621 00:22:39.519050 101073 net.cpp:156] Memory required for data: 254816164
I0621 00:22:39.519053 101073 layer_factory.hpp:77] Creating layer mbox_priorbox
I0621 00:22:39.519058 101073 net.cpp:91] Creating Layer mbox_priorbox
I0621 00:22:39.519063 101073 net.cpp:425] mbox_priorbox <- conv4_3_norm_mbox_priorbox
I0621 00:22:39.519068 101073 net.cpp:425] mbox_priorbox <- fc7_mbox_priorbox
I0621 00:22:39.519073 101073 net.cpp:425] mbox_priorbox <- conv6_2_mbox_priorbox
I0621 00:22:39.519076 101073 net.cpp:425] mbox_priorbox <- conv7_2_mbox_priorbox
I0621 00:22:39.519080 101073 net.cpp:425] mbox_priorbox <- conv8_2_mbox_priorbox
I0621 00:22:39.519084 101073 net.cpp:425] mbox_priorbox <- pool6_mbox_priorbox
I0621 00:22:39.519088 101073 net.cpp:399] mbox_priorbox -> mbox_priorbox
I0621 00:22:39.519122 101073 net.cpp:141] Setting up mbox_priorbox
I0621 00:22:39.519129 101073 net.cpp:148] Top shape: 1 2 29232 (58464)
I0621 00:22:39.519132 101073 net.cpp:156] Memory required for data: 255050020
I0621 00:22:39.519134 101073 layer_factory.hpp:77] Creating layer mbox_conf_reshape
I0621 00:22:39.519150 101073 net.cpp:91] Creating Layer mbox_conf_reshape
I0621 00:22:39.519153 101073 net.cpp:425] mbox_conf_reshape <- mbox_conf
I0621 00:22:39.519158 101073 net.cpp:399] mbox_conf_reshape -> mbox_conf_reshape
I0621 00:22:39.519207 101073 net.cpp:141] Setting up mbox_conf_reshape
I0621 00:22:39.519214 101073 net.cpp:148] Top shape: 1 7308 12 (87696)
I0621 00:22:39.519218 101073 net.cpp:156] Memory required for data: 255400804
I0621 00:22:39.519222 101073 layer_factory.hpp:77] Creating layer mbox_conf_softmax
I0621 00:22:39.519227 101073 net.cpp:91] Creating Layer mbox_conf_softmax
I0621 00:22:39.519232 101073 net.cpp:425] mbox_conf_softmax <- mbox_conf_reshape
I0621 00:22:39.519235 101073 net.cpp:399] mbox_conf_softmax -> mbox_conf_softmax
I0621 00:22:39.519747 101073 net.cpp:141] Setting up mbox_conf_softmax
I0621 00:22:39.519754 101073 net.cpp:148] Top shape: 1 7308 12 (87696)
I0621 00:22:39.519758 101073 net.cpp:156] Memory required for data: 255751588
I0621 00:22:39.519762 101073 layer_factory.hpp:77] Creating layer mbox_conf_flatten
I0621 00:22:39.519768 101073 net.cpp:91] Creating Layer mbox_conf_flatten
I0621 00:22:39.519773 101073 net.cpp:425] mbox_conf_flatten <- mbox_conf_softmax
I0621 00:22:39.519788 101073 net.cpp:399] mbox_conf_flatten -> mbox_conf_flatten
I0621 00:22:39.519826 101073 net.cpp:141] Setting up mbox_conf_flatten
I0621 00:22:39.519832 101073 net.cpp:148] Top shape: 1 87696 (87696)
I0621 00:22:39.519836 101073 net.cpp:156] Memory required for data: 256102372
I0621 00:22:39.519840 101073 layer_factory.hpp:77] Creating layer mbox_pose_reshape
I0621 00:22:39.519845 101073 net.cpp:91] Creating Layer mbox_pose_reshape
I0621 00:22:39.519848 101073 net.cpp:425] mbox_pose_reshape <- mbox_pose
I0621 00:22:39.519853 101073 net.cpp:399] mbox_pose_reshape -> mbox_pose_reshape
I0621 00:22:39.519889 101073 net.cpp:141] Setting up mbox_pose_reshape
I0621 00:22:39.519896 101073 net.cpp:148] Top shape: 1 7308 8 (58464)
I0621 00:22:39.519901 101073 net.cpp:156] Memory required for data: 256336228
I0621 00:22:39.519902 101073 layer_factory.hpp:77] Creating layer mbox_pose_softmax
I0621 00:22:39.519908 101073 net.cpp:91] Creating Layer mbox_pose_softmax
I0621 00:22:39.519912 101073 net.cpp:425] mbox_pose_softmax <- mbox_pose_reshape
I0621 00:22:39.519917 101073 net.cpp:399] mbox_pose_softmax -> mbox_pose_softmax
I0621 00:22:39.524899 101073 net.cpp:141] Setting up mbox_pose_softmax
I0621 00:22:39.524910 101073 net.cpp:148] Top shape: 1 7308 8 (58464)
I0621 00:22:39.524914 101073 net.cpp:156] Memory required for data: 256570084
I0621 00:22:39.524916 101073 layer_factory.hpp:77] Creating layer mbox_pose_flatten
I0621 00:22:39.524924 101073 net.cpp:91] Creating Layer mbox_pose_flatten
I0621 00:22:39.524926 101073 net.cpp:425] mbox_pose_flatten <- mbox_pose_softmax
I0621 00:22:39.524931 101073 net.cpp:399] mbox_pose_flatten -> mbox_pose_flatten
I0621 00:22:39.524967 101073 net.cpp:141] Setting up mbox_pose_flatten
I0621 00:22:39.524973 101073 net.cpp:148] Top shape: 1 58464 (58464)
I0621 00:22:39.524976 101073 net.cpp:156] Memory required for data: 256803940
I0621 00:22:39.524979 101073 layer_factory.hpp:77] Creating layer detection_out
I0621 00:22:39.525012 101073 net.cpp:91] Creating Layer detection_out
I0621 00:22:39.525017 101073 net.cpp:425] detection_out <- mbox_loc
I0621 00:22:39.525022 101073 net.cpp:425] detection_out <- mbox_conf_flatten
I0621 00:22:39.525025 101073 net.cpp:425] detection_out <- mbox_pose_flatten
I0621 00:22:39.525028 101073 net.cpp:425] detection_out <- mbox_priorbox
I0621 00:22:39.525034 101073 net.cpp:399] detection_out -> detection_out
I0621 00:22:39.528288 101073 net.cpp:141] Setting up detection_out
I0621 00:22:39.528301 101073 net.cpp:148] Top shape: 1 1 1 9 (9)
I0621 00:22:39.528303 101073 net.cpp:156] Memory required for data: 256803976
I0621 00:22:39.528306 101073 layer_factory.hpp:77] Creating layer detection_eval
I0621 00:22:39.528316 101073 net.cpp:91] Creating Layer detection_eval
I0621 00:22:39.528318 101073 net.cpp:425] detection_eval <- detection_out
I0621 00:22:39.528322 101073 net.cpp:425] detection_eval <- label
I0621 00:22:39.528327 101073 net.cpp:399] detection_eval -> detection_eval
I0621 00:22:39.528372 101073 net.cpp:141] Setting up detection_eval
I0621 00:22:39.528378 101073 net.cpp:148] Top shape: 1 1 12 5 (60)
I0621 00:22:39.528383 101073 net.cpp:156] Memory required for data: 256804216
I0621 00:22:39.528385 101073 net.cpp:219] detection_eval does not need backward computation.
I0621 00:22:39.528388 101073 net.cpp:219] detection_out does not need backward computation.
I0621 00:22:39.528393 101073 net.cpp:219] mbox_pose_flatten does not need backward computation.
I0621 00:22:39.528394 101073 net.cpp:219] mbox_pose_softmax does not need backward computation.
…
